{"format": "graph-model", "generatedBy": "2.15.0", "convertedBy": "TensorFlow.js Converter v4.21.0", "signature": {"inputs": {"module_wrapper_input": {"name": "module_wrapper_input:0", "dtype": "DT_FLOAT", "tensorShape": {"dim": [{"size": "-1"}, {"size": "20"}, {"size": "100"}, {"size": "100"}, {"size": "3"}]}}}, "outputs": {"dense": {"name": "Identity:0", "dtype": "DT_FLOAT", "tensorShape": {"dim": [{"size": "-1"}, {"size": "2"}]}}}}, "modelTopology": {"node": [{"name": "StatefulPartitionedCall/sequential/module_wrapper_1/sep_conv_lst_m2d_1/TensorArrayV2Stack/TensorListStack/element_shape", "op": "Const", "attr": {"dtype": {"type": "DT_INT32"}, "value": {"tensor": {"dtype": "DT_INT32", "tensorShape": {"dim": [{"size": "4"}]}}}}}, {"name": "StatefulPartitionedCall/sequential/module_wrapper_1/sep_conv_lst_m2d_1/transpose_1/perm", "op": "Const", "attr": {"value": {"tensor": {"dtype": "DT_INT32", "tensorShape": {"dim": [{"size": "5"}]}}}, "dtype": {"type": "DT_INT32"}}}, {"name": "StatefulPartitionedCall/sequential/flatten/Const", "op": "Const", "attr": {"dtype": {"type": "DT_INT32"}, "value": {"tensor": {"dtype": "DT_INT32", "tensorShape": {"dim": [{"size": "2"}]}}}}}, {"name": "StatefulPartitionedCall/sequential/dense/MatMul/ReadVariableOp", "op": "Const", "attr": {"value": {"tensor": {"dtype": "DT_FLOAT", "tensorShape": {"dim": [{"size": "800000"}, {"size": "2"}]}}}, "dtype": {"type": "DT_FLOAT"}}}, {"name": "StatefulPartitionedCall/sequential/dense/BiasAdd/ReadVariableOp", "op": "Const", "attr": {"dtype": {"type": "DT_FLOAT"}, "value": {"tensor": {"dtype": "DT_FLOAT", "tensorShape": {"dim": [{"size": "2"}]}}}}}, {"name": "StatefulPartitionedCall/sequential/module_wrapper_1/sep_conv_lst_m2d_1/while/maximum_iterations", "op": "Const", "attr": {"_has_manual_control_dependencies": {"b": true}, "dtype": {"type": "DT_INT32"}, "value": {"tensor": {"dtype": "DT_INT32", "tensorShape": {}}}}}, {"name": "StatefulPartitionedCall/sequential/module_wrapper_1/sep_conv_lst_m2d_1/time", "op": "Const", "attr": {"dtype": {"type": "DT_INT32"}, "value": {"tensor": {"dtype": "DT_INT32", "tensorShape": {}}}, "_has_manual_control_dependencies": {"b": true}}}, {"name": "StatefulPartitionedCall/sequential/module_wrapper_1/sep_conv_lst_m2d_1/while/loop_counter", "op": "Const", "attr": {"dtype": {"type": "DT_INT32"}, "value": {"tensor": {"dtype": "DT_INT32", "tensorShape": {}}}, "_has_manual_control_dependencies": {"b": true}}}, {"name": "Func/StatefulPartitionedCall/input/_6", "op": "Const", "attr": {"value": {"tensor": {"dtype": "DT_FLOAT", "tensorShape": {"dim": [{"size": "3"}, {"size": "3"}, {"size": "32"}, {"size": "4"}]}}}, "dtype": {"type": "DT_FLOAT"}}}, {"name": "Func/StatefulPartitionedCall/input/_7", "op": "Const", "attr": {"value": {"tensor": {"dtype": "DT_FLOAT", "tensorShape": {"dim": [{"size": "3"}, {"size": "3"}, {"size": "64"}, {"size": "4"}]}}}, "dtype": {"type": "DT_FLOAT"}}}, {"name": "Func/StatefulPartitionedCall/input/_8", "op": "Const", "attr": {"value": {"tensor": {"dtype": "DT_FLOAT", "tensorShape": {"dim": [{"size": "1"}, {"size": "1"}, {"size": "32"}, {"size": "256"}]}}}, "dtype": {"type": "DT_FLOAT"}}}, {"name": "Func/StatefulPartitionedCall/input/_9", "op": "Const", "attr": {"value": {"tensor": {"dtype": "DT_FLOAT", "tensorShape": {"dim": [{"size": "1"}, {"size": "1"}, {"size": "64"}, {"size": "256"}]}}}, "dtype": {"type": "DT_FLOAT"}}}, {"name": "Func/StatefulPartitionedCall/input/_10", "op": "Const", "attr": {"value": {"tensor": {"dtype": "DT_FLOAT", "tensorShape": {"dim": [{"size": "256"}]}}}, "dtype": {"type": "DT_FLOAT"}}}, {"name": "StatefulPartitionedCall/sequential/module_wrapper_1/sep_conv_lst_m2d_1/TensorArrayV2_1/element_shape", "op": "Const", "attr": {"dtype": {"type": "DT_INT32"}, "value": {"tensor": {"dtype": "DT_INT32", "tensorShape": {"dim": [{"size": "4"}]}}}}}, {"name": "StatefulPartitionedCall/sequential/module_wrapper_1/sep_conv_lst_m2d_1/strided_slice/stack", "op": "Const", "attr": {"value": {"tensor": {"dtype": "DT_INT32", "tensorShape": {"dim": [{"size": "1"}]}}}, "dtype": {"type": "DT_INT32"}}}, {"name": "StatefulPartitionedCall/sequential/module_wrapper_1/sep_conv_lst_m2d_1/strided_slice/stack_1", "op": "Const", "attr": {"value": {"tensor": {"dtype": "DT_INT32", "tensorShape": {"dim": [{"size": "1"}]}}}, "dtype": {"type": "DT_INT32"}}}, {"name": "StatefulPartitionedCall/sequential/module_wrapper_1/sep_conv_lst_m2d_1/strided_slice/stack_2", "op": "Const", "attr": {"dtype": {"type": "DT_INT32"}, "value": {"tensor": {"dtype": "DT_INT32", "tensorShape": {"dim": [{"size": "1"}]}}}}}, {"name": "StatefulPartitionedCall/sequential/module_wrapper_1/sep_conv_lst_m2d_1/Sum/reduction_indices", "op": "Const", "attr": {"value": {"tensor": {"dtype": "DT_INT32", "tensorShape": {}}}, "dtype": {"type": "DT_INT32"}}}, {"name": "StatefulPartitionedCall/sequential/module_wrapper_1/sep_conv_lst_m2d_1/zeros", "op": "Const", "attr": {"dtype": {"type": "DT_FLOAT"}, "value": {"tensor": {"dtype": "DT_FLOAT", "tensorShape": {"dim": [{"size": "3"}, {"size": "3"}, {"size": "32"}, {"size": "1"}]}}}}}, {"name": "StatefulPartitionedCall/sequential/module_wrapper_1/sep_conv_lst_m2d_1/zeros_1", "op": "Const", "attr": {"value": {"tensor": {"dtype": "DT_FLOAT", "tensorShape": {"dim": [{"size": "1"}, {"size": "1"}, {"size": "32"}, {"size": "64"}]}}}, "dtype": {"type": "DT_FLOAT"}}}, {"name": "StatefulPartitionedCall/sequential/module_wrapper/sep_conv_lst_m2d/time", "op": "Const", "attr": {"value": {"tensor": {"dtype": "DT_INT32", "tensorShape": {}}}, "dtype": {"type": "DT_INT32"}, "_has_manual_control_dependencies": {"b": true}}}, {"name": "StatefulPartitionedCall/sequential/module_wrapper/sep_conv_lst_m2d/while/loop_counter", "op": "Const", "attr": {"dtype": {"type": "DT_INT32"}, "_has_manual_control_dependencies": {"b": true}, "value": {"tensor": {"dtype": "DT_INT32", "tensorShape": {}}}}}, {"name": "StatefulPartitionedCall/sequential/module_wrapper/sep_conv_lst_m2d/while/maximum_iterations", "op": "Const", "attr": {"_has_manual_control_dependencies": {"b": true}, "dtype": {"type": "DT_INT32"}, "value": {"tensor": {"dtype": "DT_INT32", "tensorShape": {}}}}}, {"name": "Func/StatefulPartitionedCall/input/_1", "op": "Const", "attr": {"dtype": {"type": "DT_FLOAT"}, "value": {"tensor": {"dtype": "DT_FLOAT", "tensorShape": {"dim": [{"size": "3"}, {"size": "3"}, {"size": "3"}, {"size": "4"}]}}}}}, {"name": "Func/StatefulPartitionedCall/input/_2", "op": "Const", "attr": {"value": {"tensor": {"dtype": "DT_FLOAT", "tensorShape": {"dim": [{"size": "3"}, {"size": "3"}, {"size": "32"}, {"size": "4"}]}}}, "dtype": {"type": "DT_FLOAT"}}}, {"name": "Func/StatefulPartitionedCall/input/_3", "op": "Const", "attr": {"dtype": {"type": "DT_FLOAT"}, "value": {"tensor": {"dtype": "DT_FLOAT", "tensorShape": {"dim": [{"size": "1"}, {"size": "1"}, {"size": "3"}, {"size": "128"}]}}}}}, {"name": "Func/StatefulPartitionedCall/input/_4", "op": "Const", "attr": {"value": {"tensor": {"dtype": "DT_FLOAT", "tensorShape": {"dim": [{"size": "1"}, {"size": "1"}, {"size": "32"}, {"size": "128"}]}}}, "dtype": {"type": "DT_FLOAT"}}}, {"name": "Func/StatefulPartitionedCall/input/_5", "op": "Const", "attr": {"value": {"tensor": {"dtype": "DT_FLOAT", "tensorShape": {"dim": [{"size": "128"}]}}}, "dtype": {"type": "DT_FLOAT"}}}, {"name": "StatefulPartitionedCall/sequential/module_wrapper/sep_conv_lst_m2d/TensorArrayV2_1/element_shape", "op": "Const", "attr": {"value": {"tensor": {"dtype": "DT_INT32", "tensorShape": {"dim": [{"size": "4"}]}}}, "dtype": {"type": "DT_INT32"}}}, {"name": "StatefulPartitionedCall/sequential/module_wrapper/sep_conv_lst_m2d/strided_slice/stack", "op": "Const", "attr": {"dtype": {"type": "DT_INT32"}, "value": {"tensor": {"dtype": "DT_INT32", "tensorShape": {"dim": [{"size": "1"}]}}}}}, {"name": "StatefulPartitionedCall/sequential/module_wrapper/sep_conv_lst_m2d/strided_slice/stack_1", "op": "Const", "attr": {"dtype": {"type": "DT_INT32"}, "value": {"tensor": {"dtype": "DT_INT32", "tensorShape": {"dim": [{"size": "1"}]}}}}}, {"name": "StatefulPartitionedCall/sequential/module_wrapper/sep_conv_lst_m2d/strided_slice/stack_2", "op": "Const", "attr": {"value": {"tensor": {"dtype": "DT_INT32", "tensorShape": {"dim": [{"size": "1"}]}}}, "dtype": {"type": "DT_INT32"}}}, {"name": "StatefulPartitionedCall/sequential/module_wrapper/sep_conv_lst_m2d/Sum/reduction_indices", "op": "Const", "attr": {"dtype": {"type": "DT_INT32"}, "value": {"tensor": {"dtype": "DT_INT32", "tensorShape": {}}}}}, {"name": "StatefulPartitionedCall/sequential/module_wrapper/sep_conv_lst_m2d/zeros", "op": "Const", "attr": {"value": {"tensor": {"dtype": "DT_FLOAT", "tensorShape": {"dim": [{"size": "3"}, {"size": "3"}, {"size": "3"}, {"size": "1"}]}}}, "dtype": {"type": "DT_FLOAT"}}}, {"name": "StatefulPartitionedCall/sequential/module_wrapper/sep_conv_lst_m2d/zeros_1", "op": "Const", "attr": {"value": {"tensor": {"dtype": "DT_FLOAT", "tensorShape": {"dim": [{"size": "1"}, {"size": "1"}, {"size": "3"}, {"size": "32"}]}}}, "dtype": {"type": "DT_FLOAT"}}}, {"name": "StatefulPartitionedCall/sequential/module_wrapper/sep_conv_lst_m2d/transpose/perm", "op": "Const", "attr": {"value": {"tensor": {"dtype": "DT_INT32", "tensorShape": {"dim": [{"size": "5"}]}}}, "dtype": {"type": "DT_INT32"}}}, {"name": "StatefulPartitionedCall/sequential/module_wrapper/sep_conv_lst_m2d/TensorArrayUnstack/TensorListFromTensor/element_shape", "op": "Const", "attr": {"value": {"tensor": {"dtype": "DT_INT32", "tensorShape": {"dim": [{"size": "4"}]}}}, "dtype": {"type": "DT_INT32"}}}, {"name": "StatefulPartitionedCall/sequential/module_wrapper/sep_conv_lst_m2d/TensorArrayV2Stack/TensorListStack/element_shape", "op": "Const", "attr": {"value": {"tensor": {"dtype": "DT_INT32", "tensorShape": {"dim": [{"size": "4"}]}}}, "dtype": {"type": "DT_INT32"}}}, {"name": "StatefulPartitionedCall/sequential/module_wrapper/sep_conv_lst_m2d/transpose_1/perm", "op": "Const", "attr": {"dtype": {"type": "DT_INT32"}, "value": {"tensor": {"dtype": "DT_INT32", "tensorShape": {"dim": [{"size": "5"}]}}}}}, {"name": "StatefulPartitionedCall/sequential/module_wrapper_1/sep_conv_lst_m2d_1/transpose/perm", "op": "Const", "attr": {"value": {"tensor": {"dtype": "DT_INT32", "tensorShape": {"dim": [{"size": "5"}]}}}, "dtype": {"type": "DT_INT32"}}}, {"name": "StatefulPartitionedCall/sequential/module_wrapper_1/sep_conv_lst_m2d_1/TensorArrayUnstack/TensorListFromTensor/element_shape", "op": "Const", "attr": {"dtype": {"type": "DT_INT32"}, "value": {"tensor": {"dtype": "DT_INT32", "tensorShape": {"dim": [{"size": "4"}]}}}}}, {"name": "module_wrapper_input", "op": "Placeholder", "attr": {"dtype": {"type": "DT_FLOAT"}, "shape": {"shape": {"dim": [{"size": "-1"}, {"size": "20"}, {"size": "100"}, {"size": "100"}, {"size": "3"}]}}}}, {"name": "StatefulPartitionedCall/sequential/module_wrapper/sep_conv_lst_m2d/zeros_like", "op": "ZerosLike", "input": ["module_wrapper_input"], "attr": {"T": {"type": "DT_FLOAT"}}}, {"name": "StatefulPartitionedCall/sequential/module_wrapper/sep_conv_lst_m2d/transpose", "op": "Transpose", "input": ["module_wrapper_input", "StatefulPartitionedCall/sequential/module_wrapper/sep_conv_lst_m2d/transpose/perm"], "attr": {"T": {"type": "DT_FLOAT"}, "Tperm": {"type": "DT_INT32"}}}, {"name": "StatefulPartitionedCall/sequential/module_wrapper/sep_conv_lst_m2d/Sum", "op": "Sum", "input": ["StatefulPartitionedCall/sequential/module_wrapper/sep_conv_lst_m2d/zeros_like", "StatefulPartitionedCall/sequential/module_wrapper/sep_conv_lst_m2d/Sum/reduction_indices"], "attr": {"Tidx": {"type": "DT_INT32"}, "keep_dims": {"b": false}, "T": {"type": "DT_FLOAT"}}}, {"name": "StatefulPartitionedCall/sequential/module_wrapper/sep_conv_lst_m2d/Shape", "op": "Shape", "input": ["StatefulPartitionedCall/sequential/module_wrapper/sep_conv_lst_m2d/transpose"], "attr": {"out_type": {"type": "DT_INT32"}, "T": {"type": "DT_FLOAT"}}, "experimentalType": {"typeId": "TFT_PRODUCT", "args": [{"typeId": "TFT_SHAPE_TENSOR", "args": [{"typeId": "TFT_INT32"}]}]}}, {"name": "StatefulPartitionedCall/sequential/module_wrapper/sep_conv_lst_m2d/TensorArrayUnstack/TensorListFromTensor", "op": "TensorListFromTensor", "input": ["StatefulPartitionedCall/sequential/module_wrapper/sep_conv_lst_m2d/transpose", "StatefulPartitionedCall/sequential/module_wrapper/sep_conv_lst_m2d/TensorArrayUnstack/TensorListFromTensor/element_shape"], "attr": {"element_dtype": {"type": "DT_FLOAT"}, "shape_type": {"type": "DT_INT32"}}, "experimentalType": {"typeId": "TFT_PRODUCT", "args": [{"typeId": "TFT_ARRAY", "args": [{"typeId": "TFT_TENSOR", "args": [{"typeId": "TFT_FLOAT"}]}]}]}}, {"name": "StatefulPartitionedCall/sequential/module_wrapper/sep_conv_lst_m2d/separable_conv2d/depthwise", "op": "DepthwiseConv2dNative", "input": ["StatefulPartitionedCall/sequential/module_wrapper/sep_conv_lst_m2d/Sum", "StatefulPartitionedCall/sequential/module_wrapper/sep_conv_lst_m2d/zeros"], "attr": {"padding": {"s": "U0FNRQ=="}, "strides": {"list": {"i": ["1", "1", "1", "1"]}}, "dilations": {"list": {"i": ["1", "1", "1", "1"]}}, "explicit_paddings": {"list": {}}, "data_format": {"s": "TkhXQw=="}, "T": {"type": "DT_FLOAT"}}}, {"name": "StatefulPartitionedCall/sequential/module_wrapper/sep_conv_lst_m2d/strided_slice", "op": "StridedSlice", "input": ["StatefulPartitionedCall/sequential/module_wrapper/sep_conv_lst_m2d/Shape", "StatefulPartitionedCall/sequential/module_wrapper/sep_conv_lst_m2d/strided_slice/stack", "StatefulPartitionedCall/sequential/module_wrapper/sep_conv_lst_m2d/strided_slice/stack_1", "StatefulPartitionedCall/sequential/module_wrapper/sep_conv_lst_m2d/strided_slice/stack_2"], "attr": {"begin_mask": {"i": "0"}, "Index": {"type": "DT_INT32"}, "T": {"type": "DT_INT32"}, "shrink_axis_mask": {"i": "1"}, "end_mask": {"i": "0"}, "ellipsis_mask": {"i": "0"}, "new_axis_mask": {"i": "0"}, "_has_manual_control_dependencies": {"b": true}}}, {"name": "StatefulPartitionedCall/sequential/module_wrapper/sep_conv_lst_m2d/separable_conv2d", "op": "Conv2D", "input": ["StatefulPartitionedCall/sequential/module_wrapper/sep_conv_lst_m2d/separable_conv2d/depthwise", "StatefulPartitionedCall/sequential/module_wrapper/sep_conv_lst_m2d/zeros_1"], "device": "/device:CPU:0", "attr": {"padding": {"s": "VkFMSUQ="}, "_has_manual_control_dependencies": {"b": true}, "dilations": {"list": {"i": ["1", "1", "1", "1"]}}, "use_cudnn_on_gpu": {"b": true}, "explicit_paddings": {"list": {}}, "T": {"type": "DT_FLOAT"}, "strides": {"list": {"i": ["1", "1", "1", "1"]}}, "data_format": {"s": "TkhXQw=="}}}, {"name": "StatefulPartitionedCall/sequential/module_wrapper/sep_conv_lst_m2d/TensorArrayV2_1", "op": "TensorListReserve", "input": ["StatefulPartitionedCall/sequential/module_wrapper/sep_conv_lst_m2d/TensorArrayV2_1/element_shape", "StatefulPartitionedCall/sequential/module_wrapper/sep_conv_lst_m2d/strided_slice"], "attr": {"element_dtype": {"type": "DT_FLOAT"}, "shape_type": {"type": "DT_INT32"}, "_has_manual_control_dependencies": {"b": true}}, "experimentalType": {"typeId": "TFT_PRODUCT", "args": [{"typeId": "TFT_ARRAY", "args": [{"typeId": "TFT_TENSOR", "args": [{"typeId": "TFT_FLOAT"}]}]}]}}, {"name": "StatefulPartitionedCall/sequential/module_wrapper/sep_conv_lst_m2d/while/LoopControlInputs/_30", "op": "NoOp", "input": ["^StatefulPartitionedCall/sequential/module_wrapper/sep_conv_lst_m2d/TensorArrayV2_1", "^StatefulPartitionedCall/sequential/module_wrapper/sep_conv_lst_m2d/separable_conv2d", "^StatefulPartitionedCall/sequential/module_wrapper/sep_conv_lst_m2d/TensorArrayUnstack/TensorListFromTensor"], "attr": {"_has_manual_control_dependencies": {"b": true}}}, {"name": "StatefulPartitionedCall/sequential/module_wrapper/sep_conv_lst_m2d/while/enter/_20", "op": "Enter", "input": ["StatefulPartitionedCall/sequential/module_wrapper/sep_conv_lst_m2d/TensorArrayV2_1", "^StatefulPartitionedCall/sequential/module_wrapper/sep_conv_lst_m2d/while/LoopControlInputs/_30"], "attr": {"T": {"type": "DT_VARIANT"}, "frame_name": {"s": "U3RhdGVmdWxQYXJ0aXRpb25lZENhbGwvc2VxdWVudGlhbC9tb2R1bGVfd3JhcHBlci9zZXBfY29udl9sc3RfbTJkL3doaWxl"}, "parallel_iterations": {"i": "32"}, "is_constant": {"b": false}}}, {"name": "StatefulPartitionedCall/sequential/module_wrapper/sep_conv_lst_m2d/while/enter/_22", "op": "Enter", "input": ["StatefulPartitionedCall/sequential/module_wrapper/sep_conv_lst_m2d/separable_conv2d", "^StatefulPartitionedCall/sequential/module_wrapper/sep_conv_lst_m2d/while/LoopControlInputs/_30"], "attr": {"is_constant": {"b": false}, "parallel_iterations": {"i": "32"}, "T": {"type": "DT_FLOAT"}, "frame_name": {"s": "U3RhdGVmdWxQYXJ0aXRpb25lZENhbGwvc2VxdWVudGlhbC9tb2R1bGVfd3JhcHBlci9zZXBfY29udl9sc3RfbTJkL3doaWxl"}}}, {"name": "StatefulPartitionedCall/sequential/module_wrapper/sep_conv_lst_m2d/while/enter/_21", "op": "Enter", "input": ["StatefulPartitionedCall/sequential/module_wrapper/sep_conv_lst_m2d/separable_conv2d", "^StatefulPartitionedCall/sequential/module_wrapper/sep_conv_lst_m2d/while/LoopControlInputs/_30"], "attr": {"T": {"type": "DT_FLOAT"}, "parallel_iterations": {"i": "32"}, "is_constant": {"b": false}, "frame_name": {"s": "U3RhdGVmdWxQYXJ0aXRpb25lZENhbGwvc2VxdWVudGlhbC9tb2R1bGVfd3JhcHBlci9zZXBfY29udl9sc3RfbTJkL3doaWxl"}}}, {"name": "StatefulPartitionedCall/sequential/module_wrapper/sep_conv_lst_m2d/while/enter/_24", "op": "Enter", "input": ["StatefulPartitionedCall/sequential/module_wrapper/sep_conv_lst_m2d/TensorArrayUnstack/TensorListFromTensor", "^StatefulPartitionedCall/sequential/module_wrapper/sep_conv_lst_m2d/while/LoopControlInputs/_30"], "attr": {"T": {"type": "DT_VARIANT"}, "parallel_iterations": {"i": "32"}, "frame_name": {"s": "U3RhdGVmdWxQYXJ0aXRpb25lZENhbGwvc2VxdWVudGlhbC9tb2R1bGVfd3JhcHBlci9zZXBfY29udl9sc3RfbTJkL3doaWxl"}, "is_constant": {"b": false}}}, {"name": "StatefulPartitionedCall/sequential/module_wrapper/sep_conv_lst_m2d/while/enter/_23", "op": "Enter", "input": ["StatefulPartitionedCall/sequential/module_wrapper/sep_conv_lst_m2d/strided_slice", "^StatefulPartitionedCall/sequential/module_wrapper/sep_conv_lst_m2d/while/LoopControlInputs/_30"], "attr": {"T": {"type": "DT_INT32"}, "parallel_iterations": {"i": "32"}, "frame_name": {"s": "U3RhdGVmdWxQYXJ0aXRpb25lZENhbGwvc2VxdWVudGlhbC9tb2R1bGVfd3JhcHBlci9zZXBfY29udl9sc3RfbTJkL3doaWxl"}, "is_constant": {"b": false}}}, {"name": "StatefulPartitionedCall/sequential/module_wrapper/sep_conv_lst_m2d/while/enter/_19", "op": "Enter", "input": ["StatefulPartitionedCall/sequential/module_wrapper/sep_conv_lst_m2d/time", "^StatefulPartitionedCall/sequential/module_wrapper/sep_conv_lst_m2d/while/LoopControlInputs/_30"], "attr": {"T": {"type": "DT_INT32"}, "frame_name": {"s": "U3RhdGVmdWxQYXJ0aXRpb25lZENhbGwvc2VxdWVudGlhbC9tb2R1bGVfd3JhcHBlci9zZXBfY29udl9sc3RfbTJkL3doaWxl"}, "is_constant": {"b": false}, "parallel_iterations": {"i": "32"}}}, {"name": "StatefulPartitionedCall/sequential/module_wrapper/sep_conv_lst_m2d/while/enter/_17", "op": "Enter", "input": ["StatefulPartitionedCall/sequential/module_wrapper/sep_conv_lst_m2d/while/loop_counter", "^StatefulPartitionedCall/sequential/module_wrapper/sep_conv_lst_m2d/while/LoopControlInputs/_30"], "attr": {"is_constant": {"b": false}, "frame_name": {"s": "U3RhdGVmdWxQYXJ0aXRpb25lZENhbGwvc2VxdWVudGlhbC9tb2R1bGVfd3JhcHBlci9zZXBfY29udl9sc3RfbTJkL3doaWxl"}, "T": {"type": "DT_INT32"}, "parallel_iterations": {"i": "32"}}}, {"name": "StatefulPartitionedCall/sequential/module_wrapper/sep_conv_lst_m2d/while/enter/_18", "op": "Enter", "input": ["StatefulPartitionedCall/sequential/module_wrapper/sep_conv_lst_m2d/while/maximum_iterations", "^StatefulPartitionedCall/sequential/module_wrapper/sep_conv_lst_m2d/while/LoopControlInputs/_30"], "attr": {"T": {"type": "DT_INT32"}, "parallel_iterations": {"i": "32"}, "is_constant": {"b": false}, "frame_name": {"s": "U3RhdGVmdWxQYXJ0aXRpb25lZENhbGwvc2VxdWVudGlhbC9tb2R1bGVfd3JhcHBlci9zZXBfY29udl9sc3RfbTJkL3doaWxl"}}}, {"name": "StatefulPartitionedCall/sequential/module_wrapper/sep_conv_lst_m2d/while/enter/_25", "op": "Enter", "input": ["Func/StatefulPartitionedCall/input/_1", "^StatefulPartitionedCall/sequential/module_wrapper/sep_conv_lst_m2d/while/LoopControlInputs/_30"], "attr": {"is_constant": {"b": true}, "frame_name": {"s": "U3RhdGVmdWxQYXJ0aXRpb25lZENhbGwvc2VxdWVudGlhbC9tb2R1bGVfd3JhcHBlci9zZXBfY29udl9sc3RfbTJkL3doaWxl"}, "T": {"type": "DT_FLOAT"}, "parallel_iterations": {"i": "32"}, "_has_manual_control_dependencies": {"b": true}}}, {"name": "StatefulPartitionedCall/sequential/module_wrapper/sep_conv_lst_m2d/while/enter/_26", "op": "Enter", "input": ["Func/StatefulPartitionedCall/input/_2", "^StatefulPartitionedCall/sequential/module_wrapper/sep_conv_lst_m2d/while/LoopControlInputs/_30"], "attr": {"_has_manual_control_dependencies": {"b": true}, "is_constant": {"b": true}, "frame_name": {"s": "U3RhdGVmdWxQYXJ0aXRpb25lZENhbGwvc2VxdWVudGlhbC9tb2R1bGVfd3JhcHBlci9zZXBfY29udl9sc3RfbTJkL3doaWxl"}, "T": {"type": "DT_FLOAT"}, "parallel_iterations": {"i": "32"}}}, {"name": "StatefulPartitionedCall/sequential/module_wrapper/sep_conv_lst_m2d/while/enter/_27", "op": "Enter", "input": ["Func/StatefulPartitionedCall/input/_3", "^StatefulPartitionedCall/sequential/module_wrapper/sep_conv_lst_m2d/while/LoopControlInputs/_30"], "attr": {"_has_manual_control_dependencies": {"b": true}, "T": {"type": "DT_FLOAT"}, "frame_name": {"s": "U3RhdGVmdWxQYXJ0aXRpb25lZENhbGwvc2VxdWVudGlhbC9tb2R1bGVfd3JhcHBlci9zZXBfY29udl9sc3RfbTJkL3doaWxl"}, "parallel_iterations": {"i": "32"}, "is_constant": {"b": true}}}, {"name": "StatefulPartitionedCall/sequential/module_wrapper/sep_conv_lst_m2d/while/enter/_28", "op": "Enter", "input": ["Func/StatefulPartitionedCall/input/_4", "^StatefulPartitionedCall/sequential/module_wrapper/sep_conv_lst_m2d/while/LoopControlInputs/_30"], "attr": {"is_constant": {"b": true}, "parallel_iterations": {"i": "32"}, "_has_manual_control_dependencies": {"b": true}, "frame_name": {"s": "U3RhdGVmdWxQYXJ0aXRpb25lZENhbGwvc2VxdWVudGlhbC9tb2R1bGVfd3JhcHBlci9zZXBfY29udl9sc3RfbTJkL3doaWxl"}, "T": {"type": "DT_FLOAT"}}}, {"name": "StatefulPartitionedCall/sequential/module_wrapper/sep_conv_lst_m2d/while/enter/_29", "op": "Enter", "input": ["Func/StatefulPartitionedCall/input/_5", "^StatefulPartitionedCall/sequential/module_wrapper/sep_conv_lst_m2d/while/LoopControlInputs/_30"], "attr": {"is_constant": {"b": true}, "_has_manual_control_dependencies": {"b": true}, "T": {"type": "DT_FLOAT"}, "parallel_iterations": {"i": "32"}, "frame_name": {"s": "U3RhdGVmdWxQYXJ0aXRpb25lZENhbGwvc2VxdWVudGlhbC9tb2R1bGVfd3JhcHBlci9zZXBfY29udl9sc3RfbTJkL3doaWxl"}}}, {"name": "StatefulPartitionedCall/sequential/module_wrapper/sep_conv_lst_m2d/while/merge/_34", "op": "Merge", "input": ["StatefulPartitionedCall/sequential/module_wrapper/sep_conv_lst_m2d/while/enter/_20", "StatefulPartitionedCall/sequential/module_wrapper/sep_conv_lst_m2d/while/next_iteration/_61"], "attr": {"_has_manual_control_dependencies": {"b": true}, "T": {"type": "DT_VARIANT"}, "N": {"i": "2"}}}, {"name": "StatefulPartitionedCall/sequential/module_wrapper/sep_conv_lst_m2d/while/merge/_36", "op": "Merge", "input": ["StatefulPartitionedCall/sequential/module_wrapper/sep_conv_lst_m2d/while/enter/_22", "StatefulPartitionedCall/sequential/module_wrapper/sep_conv_lst_m2d/while/next_iteration/_63"], "attr": {"N": {"i": "2"}, "_has_manual_control_dependencies": {"b": true}, "T": {"type": "DT_FLOAT"}}}, {"name": "StatefulPartitionedCall/sequential/module_wrapper/sep_conv_lst_m2d/while/merge/_35", "op": "Merge", "input": ["StatefulPartitionedCall/sequential/module_wrapper/sep_conv_lst_m2d/while/enter/_21", "StatefulPartitionedCall/sequential/module_wrapper/sep_conv_lst_m2d/while/next_iteration/_62"], "attr": {"_has_manual_control_dependencies": {"b": true}, "N": {"i": "2"}, "T": {"type": "DT_FLOAT"}}}, {"name": "StatefulPartitionedCall/sequential/module_wrapper/sep_conv_lst_m2d/while/merge/_38", "op": "Merge", "input": ["StatefulPartitionedCall/sequential/module_wrapper/sep_conv_lst_m2d/while/enter/_24", "StatefulPartitionedCall/sequential/module_wrapper/sep_conv_lst_m2d/while/next_iteration/_65"], "attr": {"N": {"i": "2"}, "T": {"type": "DT_VARIANT"}, "_has_manual_control_dependencies": {"b": true}}}, {"name": "StatefulPartitionedCall/sequential/module_wrapper/sep_conv_lst_m2d/while/merge/_37", "op": "Merge", "input": ["StatefulPartitionedCall/sequential/module_wrapper/sep_conv_lst_m2d/while/enter/_23", "StatefulPartitionedCall/sequential/module_wrapper/sep_conv_lst_m2d/while/next_iteration/_64"], "attr": {"N": {"i": "2"}, "_has_manual_control_dependencies": {"b": true}, "T": {"type": "DT_INT32"}}}, {"name": "StatefulPartitionedCall/sequential/module_wrapper/sep_conv_lst_m2d/while/merge/_33", "op": "Merge", "input": ["StatefulPartitionedCall/sequential/module_wrapper/sep_conv_lst_m2d/while/enter/_19", "StatefulPartitionedCall/sequential/module_wrapper/sep_conv_lst_m2d/while/next_iteration/_60"], "attr": {"_has_manual_control_dependencies": {"b": true}, "T": {"type": "DT_INT32"}, "N": {"i": "2"}}}, {"name": "StatefulPartitionedCall/sequential/module_wrapper/sep_conv_lst_m2d/while/merge/_31", "op": "Merge", "input": ["StatefulPartitionedCall/sequential/module_wrapper/sep_conv_lst_m2d/while/enter/_17", "StatefulPartitionedCall/sequential/module_wrapper/sep_conv_lst_m2d/while/next_iteration/_58"], "attr": {"N": {"i": "2"}, "T": {"type": "DT_INT32"}, "_has_manual_control_dependencies": {"b": true}}}, {"name": "StatefulPartitionedCall/sequential/module_wrapper/sep_conv_lst_m2d/while/merge/_32", "op": "Merge", "input": ["StatefulPartitionedCall/sequential/module_wrapper/sep_conv_lst_m2d/while/enter/_18", "StatefulPartitionedCall/sequential/module_wrapper/sep_conv_lst_m2d/while/next_iteration/_59"], "attr": {"T": {"type": "DT_INT32"}, "_has_manual_control_dependencies": {"b": true}, "N": {"i": "2"}}}, {"name": "StatefulPartitionedCall/sequential/module_wrapper/sep_conv_lst_m2d/while/cond/_15/sequential/module_wrapper/sep_conv_lst_m2d/while/Less", "op": "Less", "input": ["StatefulPartitionedCall/sequential/module_wrapper/sep_conv_lst_m2d/while/merge/_33", "StatefulPartitionedCall/sequential/module_wrapper/sep_conv_lst_m2d/while/merge/_37", "^StatefulPartitionedCall/sequential/module_wrapper/sep_conv_lst_m2d/while/merge/_38", "^StatefulPartitionedCall/sequential/module_wrapper/sep_conv_lst_m2d/while/enter/_25", "^StatefulPartitionedCall/sequential/module_wrapper/sep_conv_lst_m2d/while/enter/_26", "^StatefulPartitionedCall/sequential/module_wrapper/sep_conv_lst_m2d/while/enter/_27", "^StatefulPartitionedCall/sequential/module_wrapper/sep_conv_lst_m2d/while/enter/_28", "^StatefulPartitionedCall/sequential/module_wrapper/sep_conv_lst_m2d/while/enter/_29", "^StatefulPartitionedCall/sequential/module_wrapper/sep_conv_lst_m2d/while/merge/_31", "^StatefulPartitionedCall/sequential/module_wrapper/sep_conv_lst_m2d/while/merge/_32", "^StatefulPartitionedCall/sequential/module_wrapper/sep_conv_lst_m2d/while/merge/_34", "^StatefulPartitionedCall/sequential/module_wrapper/sep_conv_lst_m2d/while/merge/_35", "^StatefulPartitionedCall/sequential/module_wrapper/sep_conv_lst_m2d/while/merge/_36"], "attr": {"T": {"type": "DT_INT32"}}}, {"name": "StatefulPartitionedCall/sequential/module_wrapper/sep_conv_lst_m2d/while/LoopCond/_39", "op": "LoopCond", "input": ["StatefulPartitionedCall/sequential/module_wrapper/sep_conv_lst_m2d/while/cond/_15/sequential/module_wrapper/sep_conv_lst_m2d/while/Less"]}, {"name": "StatefulPartitionedCall/sequential/module_wrapper/sep_conv_lst_m2d/while/StatefulPartitionedCall/sequential/module_wrapper/sep_conv_lst_m2d/TensorArrayUnstack/TensorListFromTensor_switch/_47", "op": "Switch", "input": ["StatefulPartitionedCall/sequential/module_wrapper/sep_conv_lst_m2d/while/merge/_38", "StatefulPartitionedCall/sequential/module_wrapper/sep_conv_lst_m2d/while/LoopCond/_39"], "attr": {"T": {"type": "DT_VARIANT"}}}, {"name": "StatefulPartitionedCall/sequential/module_wrapper/sep_conv_lst_m2d/while/StatefulPartitionedCall/sequential/module_wrapper/sep_conv_lst_m2d/separable_conv2d_switch/_44", "op": "Switch", "input": ["StatefulPartitionedCall/sequential/module_wrapper/sep_conv_lst_m2d/while/merge/_35", "StatefulPartitionedCall/sequential/module_wrapper/sep_conv_lst_m2d/while/LoopCond/_39"], "attr": {"T": {"type": "DT_FLOAT"}}}, {"name": "StatefulPartitionedCall/sequential/module_wrapper/sep_conv_lst_m2d/while/StatefulPartitionedCall/sequential/module_wrapper/sep_conv_lst_m2d/separable_conv2d_switch/_45", "op": "Switch", "input": ["StatefulPartitionedCall/sequential/module_wrapper/sep_conv_lst_m2d/while/merge/_36", "StatefulPartitionedCall/sequential/module_wrapper/sep_conv_lst_m2d/while/LoopCond/_39"], "attr": {"T": {"type": "DT_FLOAT"}}}, {"name": "StatefulPartitionedCall/sequential/module_wrapper/sep_conv_lst_m2d/while/StatefulPartitionedCall/sequential/module_wrapper/sep_conv_lst_m2d/strided_slice_switch/_46", "op": "Switch", "input": ["StatefulPartitionedCall/sequential/module_wrapper/sep_conv_lst_m2d/while/merge/_37", "StatefulPartitionedCall/sequential/module_wrapper/sep_conv_lst_m2d/while/LoopCond/_39"], "attr": {"T": {"type": "DT_INT32"}}}, {"name": "StatefulPartitionedCall/sequential/module_wrapper/sep_conv_lst_m2d/while/StatefulPartitionedCall/sequential/module_wrapper/sep_conv_lst_m2d/time_switch/_42", "op": "Switch", "input": ["StatefulPartitionedCall/sequential/module_wrapper/sep_conv_lst_m2d/while/merge/_33", "StatefulPartitionedCall/sequential/module_wrapper/sep_conv_lst_m2d/while/LoopCond/_39"], "attr": {"T": {"type": "DT_INT32"}}}, {"name": "StatefulPartitionedCall/sequential/module_wrapper/sep_conv_lst_m2d/while/StatefulPartitionedCall/sequential/module_wrapper/sep_conv_lst_m2d/while/loop_counter_switch/_40", "op": "Switch", "input": ["StatefulPartitionedCall/sequential/module_wrapper/sep_conv_lst_m2d/while/merge/_31", "StatefulPartitionedCall/sequential/module_wrapper/sep_conv_lst_m2d/while/LoopCond/_39"], "attr": {"T": {"type": "DT_INT32"}}}, {"name": "StatefulPartitionedCall/sequential/module_wrapper/sep_conv_lst_m2d/while/StatefulPartitionedCall/sequential/module_wrapper/sep_conv_lst_m2d/while/maximum_iterations_switch/_41", "op": "Switch", "input": ["StatefulPartitionedCall/sequential/module_wrapper/sep_conv_lst_m2d/while/merge/_32", "StatefulPartitionedCall/sequential/module_wrapper/sep_conv_lst_m2d/while/LoopCond/_39"], "attr": {"T": {"type": "DT_INT32"}}}, {"name": "StatefulPartitionedCall/sequential/module_wrapper/sep_conv_lst_m2d/while/StatefulPartitionedCall/sequential/module_wrapper/sep_conv_lst_m2d/TensorArrayV2_1_switch/_43", "op": "Switch", "input": ["StatefulPartitionedCall/sequential/module_wrapper/sep_conv_lst_m2d/while/merge/_34", "StatefulPartitionedCall/sequential/module_wrapper/sep_conv_lst_m2d/while/LoopCond/_39"], "attr": {"T": {"type": "DT_VARIANT"}, "_has_manual_control_dependencies": {"b": true}}}, {"name": "StatefulPartitionedCall/sequential/module_wrapper/sep_conv_lst_m2d/while/exit/_56", "op": "Exit", "input": ["StatefulPartitionedCall/sequential/module_wrapper/sep_conv_lst_m2d/while/StatefulPartitionedCall/sequential/module_wrapper/sep_conv_lst_m2d/TensorArrayUnstack/TensorListFromTensor_switch/_47"], "attr": {"_has_manual_control_dependencies": {"b": true}, "T": {"type": "DT_VARIANT"}}}, {"name": "StatefulPartitionedCall/sequential/module_wrapper/sep_conv_lst_m2d/while/exit/_53", "op": "Exit", "input": ["StatefulPartitionedCall/sequential/module_wrapper/sep_conv_lst_m2d/while/StatefulPartitionedCall/sequential/module_wrapper/sep_conv_lst_m2d/separable_conv2d_switch/_44"], "attr": {"T": {"type": "DT_FLOAT"}, "_has_manual_control_dependencies": {"b": true}}}, {"name": "StatefulPartitionedCall/sequential/module_wrapper/sep_conv_lst_m2d/while/exit/_54", "op": "Exit", "input": ["StatefulPartitionedCall/sequential/module_wrapper/sep_conv_lst_m2d/while/StatefulPartitionedCall/sequential/module_wrapper/sep_conv_lst_m2d/separable_conv2d_switch/_45"], "attr": {"T": {"type": "DT_FLOAT"}, "_has_manual_control_dependencies": {"b": true}}}, {"name": "StatefulPartitionedCall/sequential/module_wrapper/sep_conv_lst_m2d/while/exit/_55", "op": "Exit", "input": ["StatefulPartitionedCall/sequential/module_wrapper/sep_conv_lst_m2d/while/StatefulPartitionedCall/sequential/module_wrapper/sep_conv_lst_m2d/strided_slice_switch/_46"], "attr": {"_has_manual_control_dependencies": {"b": true}, "T": {"type": "DT_INT32"}}}, {"name": "StatefulPartitionedCall/sequential/module_wrapper/sep_conv_lst_m2d/while/exit/_51", "op": "Exit", "input": ["StatefulPartitionedCall/sequential/module_wrapper/sep_conv_lst_m2d/while/StatefulPartitionedCall/sequential/module_wrapper/sep_conv_lst_m2d/time_switch/_42"], "attr": {"T": {"type": "DT_INT32"}, "_has_manual_control_dependencies": {"b": true}}}, {"name": "StatefulPartitionedCall/sequential/module_wrapper/sep_conv_lst_m2d/while/exit/_49", "op": "Exit", "input": ["StatefulPartitionedCall/sequential/module_wrapper/sep_conv_lst_m2d/while/StatefulPartitionedCall/sequential/module_wrapper/sep_conv_lst_m2d/while/loop_counter_switch/_40"], "attr": {"_has_manual_control_dependencies": {"b": true}, "T": {"type": "DT_INT32"}}}, {"name": "StatefulPartitionedCall/sequential/module_wrapper/sep_conv_lst_m2d/while/loop_body_control/_48", "op": "Identity", "input": ["StatefulPartitionedCall/sequential/module_wrapper/sep_conv_lst_m2d/while/StatefulPartitionedCall/sequential/module_wrapper/sep_conv_lst_m2d/while/loop_counter_switch/_40:1"], "attr": {"_has_manual_control_dependencies": {"b": true}, "T": {"type": "DT_INT32"}}}, {"name": "StatefulPartitionedCall/sequential/module_wrapper/sep_conv_lst_m2d/while/exit/_50", "op": "Exit", "input": ["StatefulPartitionedCall/sequential/module_wrapper/sep_conv_lst_m2d/while/StatefulPartitionedCall/sequential/module_wrapper/sep_conv_lst_m2d/while/maximum_iterations_switch/_41"], "attr": {"T": {"type": "DT_INT32"}, "_has_manual_control_dependencies": {"b": true}}}, {"name": "StatefulPartitionedCall/sequential/module_wrapper/sep_conv_lst_m2d/while/exit/_52", "op": "Exit", "input": ["StatefulPartitionedCall/sequential/module_wrapper/sep_conv_lst_m2d/while/StatefulPartitionedCall/sequential/module_wrapper/sep_conv_lst_m2d/TensorArrayV2_1_switch/_43"], "attr": {"T": {"type": "DT_VARIANT"}, "_has_manual_control_dependencies": {"b": true}}}, {"name": "Func/StatefulPartitionedCall/sequential/module_wrapper/sep_conv_lst_m2d/while/body/_16/input_control_node/_132", "op": "NoOp", "input": ["^StatefulPartitionedCall/sequential/module_wrapper/sep_conv_lst_m2d/while/StatefulPartitionedCall/sequential/module_wrapper/sep_conv_lst_m2d/TensorArrayUnstack/TensorListFromTensor_switch/_47", "^StatefulPartitionedCall/sequential/module_wrapper/sep_conv_lst_m2d/while/StatefulPartitionedCall/sequential/module_wrapper/sep_conv_lst_m2d/TensorArrayV2_1_switch/_43", "^StatefulPartitionedCall/sequential/module_wrapper/sep_conv_lst_m2d/while/StatefulPartitionedCall/sequential/module_wrapper/sep_conv_lst_m2d/separable_conv2d_switch/_44", "^StatefulPartitionedCall/sequential/module_wrapper/sep_conv_lst_m2d/while/StatefulPartitionedCall/sequential/module_wrapper/sep_conv_lst_m2d/separable_conv2d_switch/_45", "^StatefulPartitionedCall/sequential/module_wrapper/sep_conv_lst_m2d/while/StatefulPartitionedCall/sequential/module_wrapper/sep_conv_lst_m2d/strided_slice_switch/_46", "^StatefulPartitionedCall/sequential/module_wrapper/sep_conv_lst_m2d/while/StatefulPartitionedCall/sequential/module_wrapper/sep_conv_lst_m2d/time_switch/_42", "^StatefulPartitionedCall/sequential/module_wrapper/sep_conv_lst_m2d/while/loop_body_control/_48", "^StatefulPartitionedCall/sequential/module_wrapper/sep_conv_lst_m2d/while/StatefulPartitionedCall/sequential/module_wrapper/sep_conv_lst_m2d/while/maximum_iterations_switch/_41", "^StatefulPartitionedCall/sequential/module_wrapper/sep_conv_lst_m2d/while/enter/_25", "^StatefulPartitionedCall/sequential/module_wrapper/sep_conv_lst_m2d/while/enter/_26", "^StatefulPartitionedCall/sequential/module_wrapper/sep_conv_lst_m2d/while/enter/_27", "^StatefulPartitionedCall/sequential/module_wrapper/sep_conv_lst_m2d/while/enter/_28", "^StatefulPartitionedCall/sequential/module_wrapper/sep_conv_lst_m2d/while/enter/_29"], "attr": {"_has_manual_control_dependencies": {"b": true}}}, {"name": "StatefulPartitionedCall/sequential/module_wrapper/sep_conv_lst_m2d/TensorArrayV2Stack/TensorListStack", "op": "TensorListStack", "input": ["StatefulPartitionedCall/sequential/module_wrapper/sep_conv_lst_m2d/while/exit/_52", "StatefulPartitionedCall/sequential/module_wrapper/sep_conv_lst_m2d/TensorArrayV2Stack/TensorListStack/element_shape"], "attr": {"element_dtype": {"type": "DT_FLOAT"}, "num_elements": {"i": "-1"}}}, {"name": "ConstantFolding/StatefulPartitionedCall/sequential/module_wrapper/sep_conv_lst_m2d/while/body/_16/sequential/module_wrapper/sep_conv_lst_m2d/while/split-folded-3", "op": "Const", "input": ["^Func/StatefulPartitionedCall/sequential/module_wrapper/sep_conv_lst_m2d/while/body/_16/input_control_node/_132", "^StatefulPartitionedCall/sequential/module_wrapper/sep_conv_lst_m2d/while/enter/_25"], "attr": {"dtype": {"type": "DT_FLOAT"}, "value": {"tensor": {"dtype": "DT_FLOAT", "tensorShape": {"dim": [{"size": "3"}, {"size": "3"}, {"size": "3"}, {"size": "1"}]}}}}}, {"name": "ConstantFolding/StatefulPartitionedCall/sequential/module_wrapper/sep_conv_lst_m2d/while/body/_16/sequential/module_wrapper/sep_conv_lst_m2d/while/split_2-folded-3", "op": "Const", "input": ["^Func/StatefulPartitionedCall/sequential/module_wrapper/sep_conv_lst_m2d/while/body/_16/input_control_node/_132", "^StatefulPartitionedCall/sequential/module_wrapper/sep_conv_lst_m2d/while/enter/_27"], "attr": {"value": {"tensor": {"dtype": "DT_FLOAT", "tensorShape": {"dim": [{"size": "1"}, {"size": "1"}, {"size": "3"}, {"size": "32"}]}}}, "dtype": {"type": "DT_FLOAT"}}}, {"name": "ConstantFolding/StatefulPartitionedCall/sequential/module_wrapper/sep_conv_lst_m2d/while/body/_16/sequential/module_wrapper/sep_conv_lst_m2d/while/split_1-folded-3", "op": "Const", "input": ["^Func/StatefulPartitionedCall/sequential/module_wrapper/sep_conv_lst_m2d/while/body/_16/input_control_node/_132", "^StatefulPartitionedCall/sequential/module_wrapper/sep_conv_lst_m2d/while/enter/_26"], "attr": {"value": {"tensor": {"dtype": "DT_FLOAT", "tensorShape": {"dim": [{"size": "3"}, {"size": "3"}, {"size": "32"}, {"size": "1"}]}}}, "dtype": {"type": "DT_FLOAT"}}}, {"name": "ConstantFolding/StatefulPartitionedCall/sequential/module_wrapper/sep_conv_lst_m2d/while/body/_16/sequential/module_wrapper/sep_conv_lst_m2d/while/split_3-folded-3", "op": "Const", "input": ["^Func/StatefulPartitionedCall/sequential/module_wrapper/sep_conv_lst_m2d/while/body/_16/input_control_node/_132", "^StatefulPartitionedCall/sequential/module_wrapper/sep_conv_lst_m2d/while/enter/_28"], "attr": {"dtype": {"type": "DT_FLOAT"}, "value": {"tensor": {"dtype": "DT_FLOAT", "tensorShape": {"dim": [{"size": "1"}, {"size": "1"}, {"size": "32"}, {"size": "32"}]}}}}}, {"name": "StatefulPartitionedCall/sequential/module_wrapper/sep_conv_lst_m2d/while/body/_16/sequential/module_wrapper/sep_conv_lst_m2d/while/Const_4", "op": "Const", "input": ["^Func/StatefulPartitionedCall/sequential/module_wrapper/sep_conv_lst_m2d/while/body/_16/input_control_node/_132"], "attr": {"value": {"tensor": {"dtype": "DT_FLOAT", "tensorShape": {}}}, "dtype": {"type": "DT_FLOAT"}}}, {"name": "StatefulPartitionedCall/sequential/module_wrapper/sep_conv_lst_m2d/while/body/_16/sequential/module_wrapper/sep_conv_lst_m2d/while/Const_5", "op": "Const", "input": ["^Func/StatefulPartitionedCall/sequential/module_wrapper/sep_conv_lst_m2d/while/body/_16/input_control_node/_132"], "attr": {"value": {"tensor": {"dtype": "DT_FLOAT", "tensorShape": {}}}, "dtype": {"type": "DT_FLOAT"}}}, {"name": "StatefulPartitionedCall/sequential/module_wrapper/sep_conv_lst_m2d/while/body/_16/sequential/module_wrapper/sep_conv_lst_m2d/while/clip_by_value_2/Minimum/y", "op": "Const", "input": ["^Func/StatefulPartitionedCall/sequential/module_wrapper/sep_conv_lst_m2d/while/body/_16/input_control_node/_132"], "attr": {"value": {"tensor": {"dtype": "DT_FLOAT", "tensorShape": {}}}, "dtype": {"type": "DT_FLOAT"}}}, {"name": "StatefulPartitionedCall/sequential/module_wrapper/sep_conv_lst_m2d/while/body/_16/sequential/module_wrapper/sep_conv_lst_m2d/while/clip_by_value_2/y", "op": "Const", "input": ["^Func/StatefulPartitionedCall/sequential/module_wrapper/sep_conv_lst_m2d/while/body/_16/input_control_node/_132"], "attr": {"dtype": {"type": "DT_FLOAT"}, "value": {"tensor": {"dtype": "DT_FLOAT", "tensorShape": {}}}}}, {"name": "ConstantFolding/StatefulPartitionedCall/sequential/module_wrapper/sep_conv_lst_m2d/while/body/_16/sequential/module_wrapper/sep_conv_lst_m2d/while/split-folded-1", "op": "Const", "input": ["^Func/StatefulPartitionedCall/sequential/module_wrapper/sep_conv_lst_m2d/while/body/_16/input_control_node/_132", "^StatefulPartitionedCall/sequential/module_wrapper/sep_conv_lst_m2d/while/enter/_25"], "attr": {"dtype": {"type": "DT_FLOAT"}, "value": {"tensor": {"dtype": "DT_FLOAT", "tensorShape": {"dim": [{"size": "3"}, {"size": "3"}, {"size": "3"}, {"size": "1"}]}}}}}, {"name": "ConstantFolding/StatefulPartitionedCall/sequential/module_wrapper/sep_conv_lst_m2d/while/body/_16/sequential/module_wrapper/sep_conv_lst_m2d/while/split_2-folded-1", "op": "Const", "input": ["^Func/StatefulPartitionedCall/sequential/module_wrapper/sep_conv_lst_m2d/while/body/_16/input_control_node/_132", "^StatefulPartitionedCall/sequential/module_wrapper/sep_conv_lst_m2d/while/enter/_27"], "attr": {"value": {"tensor": {"dtype": "DT_FLOAT", "tensorShape": {"dim": [{"size": "1"}, {"size": "1"}, {"size": "3"}, {"size": "32"}]}}}, "dtype": {"type": "DT_FLOAT"}}}, {"name": "ConstantFolding/StatefulPartitionedCall/sequential/module_wrapper/sep_conv_lst_m2d/while/body/_16/sequential/module_wrapper/sep_conv_lst_m2d/while/split_1-folded-1", "op": "Const", "input": ["^Func/StatefulPartitionedCall/sequential/module_wrapper/sep_conv_lst_m2d/while/body/_16/input_control_node/_132", "^StatefulPartitionedCall/sequential/module_wrapper/sep_conv_lst_m2d/while/enter/_26"], "attr": {"value": {"tensor": {"dtype": "DT_FLOAT", "tensorShape": {"dim": [{"size": "3"}, {"size": "3"}, {"size": "32"}, {"size": "1"}]}}}, "dtype": {"type": "DT_FLOAT"}}}, {"name": "ConstantFolding/StatefulPartitionedCall/sequential/module_wrapper/sep_conv_lst_m2d/while/body/_16/sequential/module_wrapper/sep_conv_lst_m2d/while/split_3-folded-1", "op": "Const", "input": ["^Func/StatefulPartitionedCall/sequential/module_wrapper/sep_conv_lst_m2d/while/body/_16/input_control_node/_132", "^StatefulPartitionedCall/sequential/module_wrapper/sep_conv_lst_m2d/while/enter/_28"], "attr": {"value": {"tensor": {"dtype": "DT_FLOAT", "tensorShape": {"dim": [{"size": "1"}, {"size": "1"}, {"size": "32"}, {"size": "32"}]}}}, "dtype": {"type": "DT_FLOAT"}}}, {"name": "StatefulPartitionedCall/sequential/module_wrapper/sep_conv_lst_m2d/while/body/_16/sequential/module_wrapper/sep_conv_lst_m2d/while/Const_2", "op": "Const", "input": ["^Func/StatefulPartitionedCall/sequential/module_wrapper/sep_conv_lst_m2d/while/body/_16/input_control_node/_132"], "attr": {"dtype": {"type": "DT_FLOAT"}, "value": {"tensor": {"dtype": "DT_FLOAT", "tensorShape": {}}}}}, {"name": "StatefulPartitionedCall/sequential/module_wrapper/sep_conv_lst_m2d/while/body/_16/sequential/module_wrapper/sep_conv_lst_m2d/while/Const_3", "op": "Const", "input": ["^Func/StatefulPartitionedCall/sequential/module_wrapper/sep_conv_lst_m2d/while/body/_16/input_control_node/_132"], "attr": {"dtype": {"type": "DT_FLOAT"}, "value": {"tensor": {"dtype": "DT_FLOAT", "tensorShape": {}}}}}, {"name": "StatefulPartitionedCall/sequential/module_wrapper/sep_conv_lst_m2d/while/body/_16/sequential/module_wrapper/sep_conv_lst_m2d/while/clip_by_value_1/Minimum/y", "op": "Const", "input": ["^Func/StatefulPartitionedCall/sequential/module_wrapper/sep_conv_lst_m2d/while/body/_16/input_control_node/_132"], "attr": {"dtype": {"type": "DT_FLOAT"}, "value": {"tensor": {"dtype": "DT_FLOAT", "tensorShape": {}}}}}, {"name": "StatefulPartitionedCall/sequential/module_wrapper/sep_conv_lst_m2d/while/body/_16/sequential/module_wrapper/sep_conv_lst_m2d/while/clip_by_value_1/y", "op": "Const", "input": ["^Func/StatefulPartitionedCall/sequential/module_wrapper/sep_conv_lst_m2d/while/body/_16/input_control_node/_132"], "attr": {"dtype": {"type": "DT_FLOAT"}, "value": {"tensor": {"dtype": "DT_FLOAT", "tensorShape": {}}}}}, {"name": "ConstantFolding/StatefulPartitionedCall/sequential/module_wrapper/sep_conv_lst_m2d/while/body/_16/sequential/module_wrapper/sep_conv_lst_m2d/while/split-folded-0", "op": "Const", "input": ["^Func/StatefulPartitionedCall/sequential/module_wrapper/sep_conv_lst_m2d/while/body/_16/input_control_node/_132", "^StatefulPartitionedCall/sequential/module_wrapper/sep_conv_lst_m2d/while/enter/_25"], "attr": {"dtype": {"type": "DT_FLOAT"}, "value": {"tensor": {"dtype": "DT_FLOAT", "tensorShape": {"dim": [{"size": "3"}, {"size": "3"}, {"size": "3"}, {"size": "1"}]}}}}}, {"name": "ConstantFolding/StatefulPartitionedCall/sequential/module_wrapper/sep_conv_lst_m2d/while/body/_16/sequential/module_wrapper/sep_conv_lst_m2d/while/split_2-folded-0", "op": "Const", "input": ["^Func/StatefulPartitionedCall/sequential/module_wrapper/sep_conv_lst_m2d/while/body/_16/input_control_node/_132", "^StatefulPartitionedCall/sequential/module_wrapper/sep_conv_lst_m2d/while/enter/_27"], "attr": {"value": {"tensor": {"dtype": "DT_FLOAT", "tensorShape": {"dim": [{"size": "1"}, {"size": "1"}, {"size": "3"}, {"size": "32"}]}}}, "dtype": {"type": "DT_FLOAT"}}}, {"name": "ConstantFolding/StatefulPartitionedCall/sequential/module_wrapper/sep_conv_lst_m2d/while/body/_16/sequential/module_wrapper/sep_conv_lst_m2d/while/split_1-folded-0", "op": "Const", "input": ["^Func/StatefulPartitionedCall/sequential/module_wrapper/sep_conv_lst_m2d/while/body/_16/input_control_node/_132", "^StatefulPartitionedCall/sequential/module_wrapper/sep_conv_lst_m2d/while/enter/_26"], "attr": {"value": {"tensor": {"dtype": "DT_FLOAT", "tensorShape": {"dim": [{"size": "3"}, {"size": "3"}, {"size": "32"}, {"size": "1"}]}}}, "dtype": {"type": "DT_FLOAT"}}}, {"name": "ConstantFolding/StatefulPartitionedCall/sequential/module_wrapper/sep_conv_lst_m2d/while/body/_16/sequential/module_wrapper/sep_conv_lst_m2d/while/split_3-folded-0", "op": "Const", "input": ["^Func/StatefulPartitionedCall/sequential/module_wrapper/sep_conv_lst_m2d/while/body/_16/input_control_node/_132", "^StatefulPartitionedCall/sequential/module_wrapper/sep_conv_lst_m2d/while/enter/_28"], "attr": {"value": {"tensor": {"dtype": "DT_FLOAT", "tensorShape": {"dim": [{"size": "1"}, {"size": "1"}, {"size": "32"}, {"size": "32"}]}}}, "dtype": {"type": "DT_FLOAT"}}}, {"name": "StatefulPartitionedCall/sequential/module_wrapper/sep_conv_lst_m2d/while/body/_16/sequential/module_wrapper/sep_conv_lst_m2d/while/Const", "op": "Const", "input": ["^Func/StatefulPartitionedCall/sequential/module_wrapper/sep_conv_lst_m2d/while/body/_16/input_control_node/_132"], "attr": {"value": {"tensor": {"dtype": "DT_FLOAT", "tensorShape": {}}}, "dtype": {"type": "DT_FLOAT"}}}, {"name": "StatefulPartitionedCall/sequential/module_wrapper/sep_conv_lst_m2d/while/body/_16/sequential/module_wrapper/sep_conv_lst_m2d/while/Const_1", "op": "Const", "input": ["^Func/StatefulPartitionedCall/sequential/module_wrapper/sep_conv_lst_m2d/while/body/_16/input_control_node/_132"], "attr": {"dtype": {"type": "DT_FLOAT"}, "value": {"tensor": {"dtype": "DT_FLOAT", "tensorShape": {}}}}}, {"name": "StatefulPartitionedCall/sequential/module_wrapper/sep_conv_lst_m2d/while/body/_16/sequential/module_wrapper/sep_conv_lst_m2d/while/clip_by_value/Minimum/y", "op": "Const", "input": ["^Func/StatefulPartitionedCall/sequential/module_wrapper/sep_conv_lst_m2d/while/body/_16/input_control_node/_132"], "attr": {"dtype": {"type": "DT_FLOAT"}, "value": {"tensor": {"dtype": "DT_FLOAT", "tensorShape": {}}}}}, {"name": "StatefulPartitionedCall/sequential/module_wrapper/sep_conv_lst_m2d/while/body/_16/sequential/module_wrapper/sep_conv_lst_m2d/while/clip_by_value/y", "op": "Const", "input": ["^Func/StatefulPartitionedCall/sequential/module_wrapper/sep_conv_lst_m2d/while/body/_16/input_control_node/_132"], "attr": {"value": {"tensor": {"dtype": "DT_FLOAT", "tensorShape": {}}}, "dtype": {"type": "DT_FLOAT"}}}, {"name": "StatefulPartitionedCall/sequential/module_wrapper/sep_conv_lst_m2d/while/body/_16/sequential/module_wrapper/sep_conv_lst_m2d/while/TensorArrayV2Read/TensorListGetItem/element_shape", "op": "Const", "input": ["^Func/StatefulPartitionedCall/sequential/module_wrapper/sep_conv_lst_m2d/while/body/_16/input_control_node/_132"], "attr": {"dtype": {"type": "DT_INT32"}, "value": {"tensor": {"dtype": "DT_INT32", "tensorShape": {"dim": [{"size": "4"}]}}}}}, {"name": "ConstantFolding/StatefulPartitionedCall/sequential/module_wrapper/sep_conv_lst_m2d/while/body/_16/sequential/module_wrapper/sep_conv_lst_m2d/while/split-folded-2", "op": "Const", "input": ["^Func/StatefulPartitionedCall/sequential/module_wrapper/sep_conv_lst_m2d/while/body/_16/input_control_node/_132", "^StatefulPartitionedCall/sequential/module_wrapper/sep_conv_lst_m2d/while/enter/_25"], "attr": {"value": {"tensor": {"dtype": "DT_FLOAT", "tensorShape": {"dim": [{"size": "3"}, {"size": "3"}, {"size": "3"}, {"size": "1"}]}}}, "dtype": {"type": "DT_FLOAT"}}}, {"name": "ConstantFolding/StatefulPartitionedCall/sequential/module_wrapper/sep_conv_lst_m2d/while/body/_16/sequential/module_wrapper/sep_conv_lst_m2d/while/split_2-folded-2", "op": "Const", "input": ["^Func/StatefulPartitionedCall/sequential/module_wrapper/sep_conv_lst_m2d/while/body/_16/input_control_node/_132", "^StatefulPartitionedCall/sequential/module_wrapper/sep_conv_lst_m2d/while/enter/_27"], "attr": {"value": {"tensor": {"dtype": "DT_FLOAT", "tensorShape": {"dim": [{"size": "1"}, {"size": "1"}, {"size": "3"}, {"size": "32"}]}}}, "dtype": {"type": "DT_FLOAT"}}}, {"name": "Func/StatefulPartitionedCall/sequential/module_wrapper/sep_conv_lst_m2d/while/body/_16/input/_137", "op": "Identity", "input": ["StatefulPartitionedCall/sequential/module_wrapper/sep_conv_lst_m2d/while/StatefulPartitionedCall/sequential/module_wrapper/sep_conv_lst_m2d/separable_conv2d_switch/_44:1", "^Func/StatefulPartitionedCall/sequential/module_wrapper/sep_conv_lst_m2d/while/body/_16/input_control_node/_132"], "attr": {"T": {"type": "DT_FLOAT"}}}, {"name": "ConstantFolding/StatefulPartitionedCall/sequential/module_wrapper/sep_conv_lst_m2d/while/body/_16/sequential/module_wrapper/sep_conv_lst_m2d/while/split_1-folded-2", "op": "Const", "input": ["^Func/StatefulPartitionedCall/sequential/module_wrapper/sep_conv_lst_m2d/while/body/_16/input_control_node/_132", "^StatefulPartitionedCall/sequential/module_wrapper/sep_conv_lst_m2d/while/enter/_26"], "attr": {"dtype": {"type": "DT_FLOAT"}, "value": {"tensor": {"dtype": "DT_FLOAT", "tensorShape": {"dim": [{"size": "3"}, {"size": "3"}, {"size": "32"}, {"size": "1"}]}}}}}, {"name": "ConstantFolding/StatefulPartitionedCall/sequential/module_wrapper/sep_conv_lst_m2d/while/body/_16/sequential/module_wrapper/sep_conv_lst_m2d/while/split_3-folded-2", "op": "Const", "input": ["^Func/StatefulPartitionedCall/sequential/module_wrapper/sep_conv_lst_m2d/while/body/_16/input_control_node/_132", "^StatefulPartitionedCall/sequential/module_wrapper/sep_conv_lst_m2d/while/enter/_28"], "attr": {"dtype": {"type": "DT_FLOAT"}, "value": {"tensor": {"dtype": "DT_FLOAT", "tensorShape": {"dim": [{"size": "1"}, {"size": "1"}, {"size": "32"}, {"size": "32"}]}}}}}, {"name": "Func/StatefulPartitionedCall/sequential/module_wrapper/sep_conv_lst_m2d/while/body/_16/input/_135", "op": "Identity", "input": ["StatefulPartitionedCall/sequential/module_wrapper/sep_conv_lst_m2d/while/StatefulPartitionedCall/sequential/module_wrapper/sep_conv_lst_m2d/time_switch/_42:1", "^Func/StatefulPartitionedCall/sequential/module_wrapper/sep_conv_lst_m2d/while/body/_16/input_control_node/_132"], "attr": {"T": {"type": "DT_INT32"}}}, {"name": "StatefulPartitionedCall/sequential/module_wrapper/sep_conv_lst_m2d/while/body/_16/sequential/module_wrapper/sep_conv_lst_m2d/while/add_8/y", "op": "Const", "input": ["^Func/StatefulPartitionedCall/sequential/module_wrapper/sep_conv_lst_m2d/while/body/_16/input_control_node/_132"], "attr": {"value": {"tensor": {"dtype": "DT_INT32", "tensorShape": {}}}, "dtype": {"type": "DT_INT32"}}}, {"name": "StatefulPartitionedCall/sequential/module_wrapper/sep_conv_lst_m2d/while/body/_16/sequential/module_wrapper/sep_conv_lst_m2d/while/add_9/y", "op": "Const", "input": ["^Func/StatefulPartitionedCall/sequential/module_wrapper/sep_conv_lst_m2d/while/body/_16/input_control_node/_132"], "attr": {"dtype": {"type": "DT_INT32"}, "value": {"tensor": {"dtype": "DT_INT32", "tensorShape": {}}}}}, {"name": "ConstantFolding/StatefulPartitionedCall/sequential/module_wrapper/sep_conv_lst_m2d/while/body/_16/sequential/module_wrapper/sep_conv_lst_m2d/while/split_4-folded-3", "op": "Const", "input": ["^Func/StatefulPartitionedCall/sequential/module_wrapper/sep_conv_lst_m2d/while/body/_16/input_control_node/_132", "^StatefulPartitionedCall/sequential/module_wrapper/sep_conv_lst_m2d/while/enter/_29"], "attr": {"dtype": {"type": "DT_FLOAT"}, "value": {"tensor": {"dtype": "DT_FLOAT", "tensorShape": {"dim": [{"size": "32"}]}}}}}, {"name": "ConstantFolding/StatefulPartitionedCall/sequential/module_wrapper/sep_conv_lst_m2d/while/body/_16/sequential/module_wrapper/sep_conv_lst_m2d/while/split_4-folded-1", "op": "Const", "input": ["^Func/StatefulPartitionedCall/sequential/module_wrapper/sep_conv_lst_m2d/while/body/_16/input_control_node/_132", "^StatefulPartitionedCall/sequential/module_wrapper/sep_conv_lst_m2d/while/enter/_29"], "attr": {"dtype": {"type": "DT_FLOAT"}, "value": {"tensor": {"dtype": "DT_FLOAT", "tensorShape": {"dim": [{"size": "32"}]}}}}}, {"name": "ConstantFolding/StatefulPartitionedCall/sequential/module_wrapper/sep_conv_lst_m2d/while/body/_16/sequential/module_wrapper/sep_conv_lst_m2d/while/split_4-folded-0", "op": "Const", "input": ["^Func/StatefulPartitionedCall/sequential/module_wrapper/sep_conv_lst_m2d/while/body/_16/input_control_node/_132", "^StatefulPartitionedCall/sequential/module_wrapper/sep_conv_lst_m2d/while/enter/_29"], "attr": {"value": {"tensor": {"dtype": "DT_FLOAT", "tensorShape": {"dim": [{"size": "32"}]}}}, "dtype": {"type": "DT_FLOAT"}}}, {"name": "ConstantFolding/StatefulPartitionedCall/sequential/module_wrapper/sep_conv_lst_m2d/while/body/_16/sequential/module_wrapper/sep_conv_lst_m2d/while/split_4-folded-2", "op": "Const", "input": ["^Func/StatefulPartitionedCall/sequential/module_wrapper/sep_conv_lst_m2d/while/body/_16/input_control_node/_132", "^StatefulPartitionedCall/sequential/module_wrapper/sep_conv_lst_m2d/while/enter/_29"], "attr": {"value": {"tensor": {"dtype": "DT_FLOAT", "tensorShape": {"dim": [{"size": "32"}]}}}, "dtype": {"type": "DT_FLOAT"}}}, {"name": "Func/StatefulPartitionedCall/sequential/module_wrapper/sep_conv_lst_m2d/while/body/_16/output_control_node/_159", "op": "NoOp", "input": ["^StatefulPartitionedCall/sequential/module_wrapper/sep_conv_lst_m2d/while/enter/_25", "^StatefulPartitionedCall/sequential/module_wrapper/sep_conv_lst_m2d/while/enter/_26", "^StatefulPartitionedCall/sequential/module_wrapper/sep_conv_lst_m2d/while/enter/_27", "^StatefulPartitionedCall/sequential/module_wrapper/sep_conv_lst_m2d/while/enter/_28", "^Func/StatefulPartitionedCall/sequential/module_wrapper/sep_conv_lst_m2d/while/body/_16/input_control_node/_132", "^StatefulPartitionedCall/sequential/module_wrapper/sep_conv_lst_m2d/while/enter/_29"], "attr": {"_has_manual_control_dependencies": {"b": true}}}, {"name": "StatefulPartitionedCall/sequential/module_wrapper/sep_conv_lst_m2d/while/body/_16/sequential/module_wrapper/sep_conv_lst_m2d/while/NoOp", "op": "NoOp", "input": ["^StatefulPartitionedCall/sequential/module_wrapper/sep_conv_lst_m2d/while/enter/_25", "^StatefulPartitionedCall/sequential/module_wrapper/sep_conv_lst_m2d/while/enter/_26", "^StatefulPartitionedCall/sequential/module_wrapper/sep_conv_lst_m2d/while/enter/_27", "^StatefulPartitionedCall/sequential/module_wrapper/sep_conv_lst_m2d/while/enter/_28", "^Func/StatefulPartitionedCall/sequential/module_wrapper/sep_conv_lst_m2d/while/body/_16/input_control_node/_132", "^StatefulPartitionedCall/sequential/module_wrapper/sep_conv_lst_m2d/while/enter/_29"], "attr": {"_has_manual_control_dependencies": {"b": true}}}, {"name": "StatefulPartitionedCall/sequential/module_wrapper/sep_conv_lst_m2d/transpose_1", "op": "Transpose", "input": ["StatefulPartitionedCall/sequential/module_wrapper/sep_conv_lst_m2d/TensorArrayV2Stack/TensorListStack", "StatefulPartitionedCall/sequential/module_wrapper/sep_conv_lst_m2d/transpose_1/perm"], "attr": {"Tperm": {"type": "DT_INT32"}, "T": {"type": "DT_FLOAT"}}}, {"name": "StatefulPartitionedCall/sequential/module_wrapper/sep_conv_lst_m2d/while/body/_16/sequential/module_wrapper/sep_conv_lst_m2d/while/separable_conv2d_7/depthwise", "op": "DepthwiseConv2dNative", "input": ["Func/StatefulPartitionedCall/sequential/module_wrapper/sep_conv_lst_m2d/while/body/_16/input/_137", "ConstantFolding/StatefulPartitionedCall/sequential/module_wrapper/sep_conv_lst_m2d/while/body/_16/sequential/module_wrapper/sep_conv_lst_m2d/while/split_1-folded-3"], "attr": {"dilations": {"list": {"i": ["1", "1", "1", "1"]}}, "padding": {"s": "U0FNRQ=="}, "strides": {"list": {"i": ["1", "1", "1", "1"]}}, "data_format": {"s": "TkhXQw=="}, "explicit_paddings": {"list": {}}, "T": {"type": "DT_FLOAT"}}}, {"name": "StatefulPartitionedCall/sequential/module_wrapper/sep_conv_lst_m2d/while/body/_16/sequential/module_wrapper/sep_conv_lst_m2d/while/separable_conv2d_5/depthwise", "op": "DepthwiseConv2dNative", "input": ["Func/StatefulPartitionedCall/sequential/module_wrapper/sep_conv_lst_m2d/while/body/_16/input/_137", "ConstantFolding/StatefulPartitionedCall/sequential/module_wrapper/sep_conv_lst_m2d/while/body/_16/sequential/module_wrapper/sep_conv_lst_m2d/while/split_1-folded-1"], "attr": {"data_format": {"s": "TkhXQw=="}, "padding": {"s": "U0FNRQ=="}, "dilations": {"list": {"i": ["1", "1", "1", "1"]}}, "strides": {"list": {"i": ["1", "1", "1", "1"]}}, "explicit_paddings": {"list": {}}, "T": {"type": "DT_FLOAT"}}}, {"name": "StatefulPartitionedCall/sequential/module_wrapper/sep_conv_lst_m2d/while/body/_16/sequential/module_wrapper/sep_conv_lst_m2d/while/separable_conv2d_4/depthwise", "op": "DepthwiseConv2dNative", "input": ["Func/StatefulPartitionedCall/sequential/module_wrapper/sep_conv_lst_m2d/while/body/_16/input/_137", "ConstantFolding/StatefulPartitionedCall/sequential/module_wrapper/sep_conv_lst_m2d/while/body/_16/sequential/module_wrapper/sep_conv_lst_m2d/while/split_1-folded-0"], "attr": {"data_format": {"s": "TkhXQw=="}, "T": {"type": "DT_FLOAT"}, "explicit_paddings": {"list": {}}, "dilations": {"list": {"i": ["1", "1", "1", "1"]}}, "padding": {"s": "U0FNRQ=="}, "strides": {"list": {"i": ["1", "1", "1", "1"]}}}}, {"name": "StatefulPartitionedCall/sequential/module_wrapper/sep_conv_lst_m2d/while/body/_16/sequential/module_wrapper/sep_conv_lst_m2d/while/separable_conv2d_6/depthwise", "op": "DepthwiseConv2dNative", "input": ["Func/StatefulPartitionedCall/sequential/module_wrapper/sep_conv_lst_m2d/while/body/_16/input/_137", "ConstantFolding/StatefulPartitionedCall/sequential/module_wrapper/sep_conv_lst_m2d/while/body/_16/sequential/module_wrapper/sep_conv_lst_m2d/while/split_1-folded-2"], "attr": {"strides": {"list": {"i": ["1", "1", "1", "1"]}}, "padding": {"s": "U0FNRQ=="}, "data_format": {"s": "TkhXQw=="}, "dilations": {"list": {"i": ["1", "1", "1", "1"]}}, "T": {"type": "DT_FLOAT"}, "explicit_paddings": {"list": {}}}}, {"name": "StatefulPartitionedCall/sequential/module_wrapper/sep_conv_lst_m2d/while/body/_16/sequential/module_wrapper/sep_conv_lst_m2d/while/TensorArrayV2Read/TensorListGetItem", "op": "TensorListGetItem", "input": ["StatefulPartitionedCall/sequential/module_wrapper/sep_conv_lst_m2d/while/StatefulPartitionedCall/sequential/module_wrapper/sep_conv_lst_m2d/TensorArrayUnstack/TensorListFromTensor_switch/_47:1", "Func/StatefulPartitionedCall/sequential/module_wrapper/sep_conv_lst_m2d/while/body/_16/input/_135", "StatefulPartitionedCall/sequential/module_wrapper/sep_conv_lst_m2d/while/body/_16/sequential/module_wrapper/sep_conv_lst_m2d/while/TensorArrayV2Read/TensorListGetItem/element_shape"], "attr": {"element_dtype": {"type": "DT_FLOAT"}}}, {"name": "StatefulPartitionedCall/sequential/module_wrapper/sep_conv_lst_m2d/while/body/_16/sequential/module_wrapper/sep_conv_lst_m2d/while/add_8", "op": "AddV2", "input": ["Func/StatefulPartitionedCall/sequential/module_wrapper/sep_conv_lst_m2d/while/body/_16/input/_135", "StatefulPartitionedCall/sequential/module_wrapper/sep_conv_lst_m2d/while/body/_16/sequential/module_wrapper/sep_conv_lst_m2d/while/add_8/y"], "attr": {"T": {"type": "DT_INT32"}}}, {"name": "StatefulPartitionedCall/sequential/module_wrapper/sep_conv_lst_m2d/while/body/_16/sequential/module_wrapper/sep_conv_lst_m2d/while/add_9", "op": "AddV2", "input": ["StatefulPartitionedCall/sequential/module_wrapper/sep_conv_lst_m2d/while/StatefulPartitionedCall/sequential/module_wrapper/sep_conv_lst_m2d/while/loop_counter_switch/_40:1", "StatefulPartitionedCall/sequential/module_wrapper/sep_conv_lst_m2d/while/body/_16/sequential/module_wrapper/sep_conv_lst_m2d/while/add_9/y"], "attr": {"T": {"type": "DT_INT32"}}}, {"name": "StatefulPartitionedCall/sequential/module_wrapper/sep_conv_lst_m2d/while/next_iteration/_65", "op": "NextIteration", "input": ["StatefulPartitionedCall/sequential/module_wrapper/sep_conv_lst_m2d/while/StatefulPartitionedCall/sequential/module_wrapper/sep_conv_lst_m2d/TensorArrayUnstack/TensorListFromTensor_switch/_47:1", "^Func/StatefulPartitionedCall/sequential/module_wrapper/sep_conv_lst_m2d/while/body/_16/output_control_node/_159", "^Func/StatefulPartitionedCall/sequential/module_wrapper/sep_conv_lst_m2d/while/body/_16/input_control_node/_132"], "attr": {"T": {"type": "DT_VARIANT"}}}, {"name": "StatefulPartitionedCall/sequential/module_wrapper/sep_conv_lst_m2d/while/next_iteration/_64", "op": "NextIteration", "input": ["StatefulPartitionedCall/sequential/module_wrapper/sep_conv_lst_m2d/while/StatefulPartitionedCall/sequential/module_wrapper/sep_conv_lst_m2d/strided_slice_switch/_46:1", "^Func/StatefulPartitionedCall/sequential/module_wrapper/sep_conv_lst_m2d/while/body/_16/output_control_node/_159", "^Func/StatefulPartitionedCall/sequential/module_wrapper/sep_conv_lst_m2d/while/body/_16/input_control_node/_132"], "attr": {"T": {"type": "DT_INT32"}}}, {"name": "StatefulPartitionedCall/sequential/module_wrapper/sep_conv_lst_m2d/while/next_iteration/_59", "op": "NextIteration", "input": ["StatefulPartitionedCall/sequential/module_wrapper/sep_conv_lst_m2d/while/StatefulPartitionedCall/sequential/module_wrapper/sep_conv_lst_m2d/while/maximum_iterations_switch/_41:1", "^Func/StatefulPartitionedCall/sequential/module_wrapper/sep_conv_lst_m2d/while/body/_16/output_control_node/_159", "^StatefulPartitionedCall/sequential/module_wrapper/sep_conv_lst_m2d/while/body/_16/sequential/module_wrapper/sep_conv_lst_m2d/while/NoOp", "^Func/StatefulPartitionedCall/sequential/module_wrapper/sep_conv_lst_m2d/while/body/_16/input_control_node/_132"], "attr": {"T": {"type": "DT_INT32"}}}, {"name": "StatefulPartitionedCall/sequential/max_pooling3d/MaxPool3D", "op": "MaxPool3D", "input": ["StatefulPartitionedCall/sequential/module_wrapper/sep_conv_lst_m2d/transpose_1"], "attr": {"padding": {"s": "U0FNRQ=="}, "T": {"type": "DT_FLOAT"}, "ksize": {"list": {"i": ["1", "1", "2", "2", "1"]}}, "data_format": {"s": "TkRIV0M="}, "strides": {"list": {"i": ["1", "1", "2", "2", "1"]}}}}, {"name": "StatefulPartitionedCall/sequential/module_wrapper/sep_conv_lst_m2d/while/body/_16/sequential/module_wrapper/sep_conv_lst_m2d/while/separable_conv2d_7", "op": "Conv2D", "input": ["StatefulPartitionedCall/sequential/module_wrapper/sep_conv_lst_m2d/while/body/_16/sequential/module_wrapper/sep_conv_lst_m2d/while/separable_conv2d_7/depthwise", "ConstantFolding/StatefulPartitionedCall/sequential/module_wrapper/sep_conv_lst_m2d/while/body/_16/sequential/module_wrapper/sep_conv_lst_m2d/while/split_3-folded-3"], "device": "/device:CPU:0", "attr": {"use_cudnn_on_gpu": {"b": true}, "padding": {"s": "VkFMSUQ="}, "dilations": {"list": {"i": ["1", "1", "1", "1"]}}, "data_format": {"s": "TkhXQw=="}, "explicit_paddings": {"list": {}}, "strides": {"list": {"i": ["1", "1", "1", "1"]}}, "T": {"type": "DT_FLOAT"}}}, {"name": "StatefulPartitionedCall/sequential/module_wrapper/sep_conv_lst_m2d/while/body/_16/sequential/module_wrapper/sep_conv_lst_m2d/while/separable_conv2d_5", "op": "Conv2D", "input": ["StatefulPartitionedCall/sequential/module_wrapper/sep_conv_lst_m2d/while/body/_16/sequential/module_wrapper/sep_conv_lst_m2d/while/separable_conv2d_5/depthwise", "ConstantFolding/StatefulPartitionedCall/sequential/module_wrapper/sep_conv_lst_m2d/while/body/_16/sequential/module_wrapper/sep_conv_lst_m2d/while/split_3-folded-1"], "device": "/device:CPU:0", "attr": {"use_cudnn_on_gpu": {"b": true}, "dilations": {"list": {"i": ["1", "1", "1", "1"]}}, "explicit_paddings": {"list": {}}, "padding": {"s": "VkFMSUQ="}, "strides": {"list": {"i": ["1", "1", "1", "1"]}}, "data_format": {"s": "TkhXQw=="}, "T": {"type": "DT_FLOAT"}}}, {"name": "StatefulPartitionedCall/sequential/module_wrapper/sep_conv_lst_m2d/while/body/_16/sequential/module_wrapper/sep_conv_lst_m2d/while/separable_conv2d_4", "op": "Conv2D", "input": ["StatefulPartitionedCall/sequential/module_wrapper/sep_conv_lst_m2d/while/body/_16/sequential/module_wrapper/sep_conv_lst_m2d/while/separable_conv2d_4/depthwise", "ConstantFolding/StatefulPartitionedCall/sequential/module_wrapper/sep_conv_lst_m2d/while/body/_16/sequential/module_wrapper/sep_conv_lst_m2d/while/split_3-folded-0"], "device": "/device:CPU:0", "attr": {"strides": {"list": {"i": ["1", "1", "1", "1"]}}, "explicit_paddings": {"list": {}}, "data_format": {"s": "TkhXQw=="}, "T": {"type": "DT_FLOAT"}, "use_cudnn_on_gpu": {"b": true}, "padding": {"s": "VkFMSUQ="}, "dilations": {"list": {"i": ["1", "1", "1", "1"]}}}}, {"name": "StatefulPartitionedCall/sequential/module_wrapper/sep_conv_lst_m2d/while/body/_16/sequential/module_wrapper/sep_conv_lst_m2d/while/separable_conv2d_6", "op": "Conv2D", "input": ["StatefulPartitionedCall/sequential/module_wrapper/sep_conv_lst_m2d/while/body/_16/sequential/module_wrapper/sep_conv_lst_m2d/while/separable_conv2d_6/depthwise", "ConstantFolding/StatefulPartitionedCall/sequential/module_wrapper/sep_conv_lst_m2d/while/body/_16/sequential/module_wrapper/sep_conv_lst_m2d/while/split_3-folded-2"], "device": "/device:CPU:0", "attr": {"explicit_paddings": {"list": {}}, "T": {"type": "DT_FLOAT"}, "dilations": {"list": {"i": ["1", "1", "1", "1"]}}, "strides": {"list": {"i": ["1", "1", "1", "1"]}}, "use_cudnn_on_gpu": {"b": true}, "padding": {"s": "VkFMSUQ="}, "data_format": {"s": "TkhXQw=="}}}, {"name": "StatefulPartitionedCall/sequential/module_wrapper/sep_conv_lst_m2d/while/body/_16/sequential/module_wrapper/sep_conv_lst_m2d/while/separable_conv2d_3/depthwise", "op": "DepthwiseConv2dNative", "input": ["StatefulPartitionedCall/sequential/module_wrapper/sep_conv_lst_m2d/while/body/_16/sequential/module_wrapper/sep_conv_lst_m2d/while/TensorArrayV2Read/TensorListGetItem", "ConstantFolding/StatefulPartitionedCall/sequential/module_wrapper/sep_conv_lst_m2d/while/body/_16/sequential/module_wrapper/sep_conv_lst_m2d/while/split-folded-3"], "attr": {"T": {"type": "DT_FLOAT"}, "padding": {"s": "U0FNRQ=="}, "explicit_paddings": {"list": {}}, "data_format": {"s": "TkhXQw=="}, "dilations": {"list": {"i": ["1", "1", "1", "1"]}}, "strides": {"list": {"i": ["1", "1", "1", "1"]}}}}, {"name": "StatefulPartitionedCall/sequential/module_wrapper/sep_conv_lst_m2d/while/body/_16/sequential/module_wrapper/sep_conv_lst_m2d/while/separable_conv2d_1/depthwise", "op": "DepthwiseConv2dNative", "input": ["StatefulPartitionedCall/sequential/module_wrapper/sep_conv_lst_m2d/while/body/_16/sequential/module_wrapper/sep_conv_lst_m2d/while/TensorArrayV2Read/TensorListGetItem", "ConstantFolding/StatefulPartitionedCall/sequential/module_wrapper/sep_conv_lst_m2d/while/body/_16/sequential/module_wrapper/sep_conv_lst_m2d/while/split-folded-1"], "attr": {"data_format": {"s": "TkhXQw=="}, "T": {"type": "DT_FLOAT"}, "dilations": {"list": {"i": ["1", "1", "1", "1"]}}, "strides": {"list": {"i": ["1", "1", "1", "1"]}}, "padding": {"s": "U0FNRQ=="}, "explicit_paddings": {"list": {}}}}, {"name": "StatefulPartitionedCall/sequential/module_wrapper/sep_conv_lst_m2d/while/body/_16/sequential/module_wrapper/sep_conv_lst_m2d/while/separable_conv2d/depthwise", "op": "DepthwiseConv2dNative", "input": ["StatefulPartitionedCall/sequential/module_wrapper/sep_conv_lst_m2d/while/body/_16/sequential/module_wrapper/sep_conv_lst_m2d/while/TensorArrayV2Read/TensorListGetItem", "ConstantFolding/StatefulPartitionedCall/sequential/module_wrapper/sep_conv_lst_m2d/while/body/_16/sequential/module_wrapper/sep_conv_lst_m2d/while/split-folded-0"], "attr": {"explicit_paddings": {"list": {}}, "T": {"type": "DT_FLOAT"}, "dilations": {"list": {"i": ["1", "1", "1", "1"]}}, "data_format": {"s": "TkhXQw=="}, "padding": {"s": "U0FNRQ=="}, "strides": {"list": {"i": ["1", "1", "1", "1"]}}}}, {"name": "StatefulPartitionedCall/sequential/module_wrapper/sep_conv_lst_m2d/while/body/_16/sequential/module_wrapper/sep_conv_lst_m2d/while/separable_conv2d_2/depthwise", "op": "DepthwiseConv2dNative", "input": ["StatefulPartitionedCall/sequential/module_wrapper/sep_conv_lst_m2d/while/body/_16/sequential/module_wrapper/sep_conv_lst_m2d/while/TensorArrayV2Read/TensorListGetItem", "ConstantFolding/StatefulPartitionedCall/sequential/module_wrapper/sep_conv_lst_m2d/while/body/_16/sequential/module_wrapper/sep_conv_lst_m2d/while/split-folded-2"], "attr": {"strides": {"list": {"i": ["1", "1", "1", "1"]}}, "data_format": {"s": "TkhXQw=="}, "T": {"type": "DT_FLOAT"}, "explicit_paddings": {"list": {}}, "padding": {"s": "U0FNRQ=="}, "dilations": {"list": {"i": ["1", "1", "1", "1"]}}}}, {"name": "StatefulPartitionedCall/sequential/module_wrapper/sep_conv_lst_m2d/while/next_iteration/_60", "op": "NextIteration", "input": ["StatefulPartitionedCall/sequential/module_wrapper/sep_conv_lst_m2d/while/body/_16/sequential/module_wrapper/sep_conv_lst_m2d/while/add_8", "^Func/StatefulPartitionedCall/sequential/module_wrapper/sep_conv_lst_m2d/while/body/_16/output_control_node/_159", "^StatefulPartitionedCall/sequential/module_wrapper/sep_conv_lst_m2d/while/body/_16/sequential/module_wrapper/sep_conv_lst_m2d/while/NoOp"], "attr": {"T": {"type": "DT_INT32"}}}, {"name": "StatefulPartitionedCall/sequential/module_wrapper/sep_conv_lst_m2d/while/next_iteration/_58", "op": "NextIteration", "input": ["StatefulPartitionedCall/sequential/module_wrapper/sep_conv_lst_m2d/while/body/_16/sequential/module_wrapper/sep_conv_lst_m2d/while/add_9", "^Func/StatefulPartitionedCall/sequential/module_wrapper/sep_conv_lst_m2d/while/body/_16/output_control_node/_159", "^StatefulPartitionedCall/sequential/module_wrapper/sep_conv_lst_m2d/while/body/_16/sequential/module_wrapper/sep_conv_lst_m2d/while/NoOp"], "attr": {"T": {"type": "DT_INT32"}}}, {"name": "StatefulPartitionedCall/sequential/module_wrapper_1/sep_conv_lst_m2d_1/zeros_like", "op": "ZerosLike", "input": ["StatefulPartitionedCall/sequential/max_pooling3d/MaxPool3D"], "attr": {"T": {"type": "DT_FLOAT"}}}, {"name": "StatefulPartitionedCall/sequential/module_wrapper_1/sep_conv_lst_m2d_1/transpose", "op": "Transpose", "input": ["StatefulPartitionedCall/sequential/max_pooling3d/MaxPool3D", "StatefulPartitionedCall/sequential/module_wrapper_1/sep_conv_lst_m2d_1/transpose/perm"], "attr": {"Tperm": {"type": "DT_INT32"}, "T": {"type": "DT_FLOAT"}}}, {"name": "StatefulPartitionedCall/sequential/module_wrapper/sep_conv_lst_m2d/while/body/_16/sequential/module_wrapper/sep_conv_lst_m2d/while/BiasAdd_3", "op": "_FusedConv2D", "input": ["StatefulPartitionedCall/sequential/module_wrapper/sep_conv_lst_m2d/while/body/_16/sequential/module_wrapper/sep_conv_lst_m2d/while/separable_conv2d_3/depthwise", "ConstantFolding/StatefulPartitionedCall/sequential/module_wrapper/sep_conv_lst_m2d/while/body/_16/sequential/module_wrapper/sep_conv_lst_m2d/while/split_2-folded-3", "ConstantFolding/StatefulPartitionedCall/sequential/module_wrapper/sep_conv_lst_m2d/while/body/_16/sequential/module_wrapper/sep_conv_lst_m2d/while/split_4-folded-3"], "device": "/device:CPU:0", "attr": {"explicit_paddings": {"list": {}}, "dilations": {"list": {"i": ["1", "1", "1", "1"]}}, "epsilon": {"f": 0.0}, "num_args": {"i": "1"}, "data_format": {"s": "TkhXQw=="}, "TArgs": {"list": {"type": ["DT_FLOAT"]}}, "fused_ops": {"list": {"s": ["Qmlhc0FkZA=="]}}, "use_cudnn_on_gpu": {"b": true}, "T": {"type": "DT_FLOAT"}, "filter_format": {"s": "SFdJTw=="}, "leakyrelu_alpha": {"f": 0.2}, "num_host_args": {"i": "0"}, "strides": {"list": {"i": ["1", "1", "1", "1"]}}, "padding": {"s": "VkFMSUQ="}}}, {"name": "StatefulPartitionedCall/sequential/module_wrapper/sep_conv_lst_m2d/while/body/_16/sequential/module_wrapper/sep_conv_lst_m2d/while/BiasAdd_1", "op": "_FusedConv2D", "input": ["StatefulPartitionedCall/sequential/module_wrapper/sep_conv_lst_m2d/while/body/_16/sequential/module_wrapper/sep_conv_lst_m2d/while/separable_conv2d_1/depthwise", "ConstantFolding/StatefulPartitionedCall/sequential/module_wrapper/sep_conv_lst_m2d/while/body/_16/sequential/module_wrapper/sep_conv_lst_m2d/while/split_2-folded-1", "ConstantFolding/StatefulPartitionedCall/sequential/module_wrapper/sep_conv_lst_m2d/while/body/_16/sequential/module_wrapper/sep_conv_lst_m2d/while/split_4-folded-1"], "device": "/device:CPU:0", "attr": {"fused_ops": {"list": {"s": ["Qmlhc0FkZA=="]}}, "explicit_paddings": {"list": {}}, "TArgs": {"list": {"type": ["DT_FLOAT"]}}, "filter_format": {"s": "SFdJTw=="}, "strides": {"list": {"i": ["1", "1", "1", "1"]}}, "use_cudnn_on_gpu": {"b": true}, "data_format": {"s": "TkhXQw=="}, "leakyrelu_alpha": {"f": 0.2}, "num_args": {"i": "1"}, "T": {"type": "DT_FLOAT"}, "padding": {"s": "VkFMSUQ="}, "dilations": {"list": {"i": ["1", "1", "1", "1"]}}, "num_host_args": {"i": "0"}, "epsilon": {"f": 0.0}}}, {"name": "StatefulPartitionedCall/sequential/module_wrapper/sep_conv_lst_m2d/while/body/_16/sequential/module_wrapper/sep_conv_lst_m2d/while/BiasAdd", "op": "_FusedConv2D", "input": ["StatefulPartitionedCall/sequential/module_wrapper/sep_conv_lst_m2d/while/body/_16/sequential/module_wrapper/sep_conv_lst_m2d/while/separable_conv2d/depthwise", "ConstantFolding/StatefulPartitionedCall/sequential/module_wrapper/sep_conv_lst_m2d/while/body/_16/sequential/module_wrapper/sep_conv_lst_m2d/while/split_2-folded-0", "ConstantFolding/StatefulPartitionedCall/sequential/module_wrapper/sep_conv_lst_m2d/while/body/_16/sequential/module_wrapper/sep_conv_lst_m2d/while/split_4-folded-0"], "device": "/device:CPU:0", "attr": {"filter_format": {"s": "SFdJTw=="}, "explicit_paddings": {"list": {}}, "epsilon": {"f": 0.0}, "data_format": {"s": "TkhXQw=="}, "T": {"type": "DT_FLOAT"}, "TArgs": {"list": {"type": ["DT_FLOAT"]}}, "padding": {"s": "VkFMSUQ="}, "num_host_args": {"i": "0"}, "strides": {"list": {"i": ["1", "1", "1", "1"]}}, "fused_ops": {"list": {"s": ["Qmlhc0FkZA=="]}}, "num_args": {"i": "1"}, "leakyrelu_alpha": {"f": 0.2}, "use_cudnn_on_gpu": {"b": true}, "dilations": {"list": {"i": ["1", "1", "1", "1"]}}}}, {"name": "StatefulPartitionedCall/sequential/module_wrapper/sep_conv_lst_m2d/while/body/_16/sequential/module_wrapper/sep_conv_lst_m2d/while/BiasAdd_2", "op": "_FusedConv2D", "input": ["StatefulPartitionedCall/sequential/module_wrapper/sep_conv_lst_m2d/while/body/_16/sequential/module_wrapper/sep_conv_lst_m2d/while/separable_conv2d_2/depthwise", "ConstantFolding/StatefulPartitionedCall/sequential/module_wrapper/sep_conv_lst_m2d/while/body/_16/sequential/module_wrapper/sep_conv_lst_m2d/while/split_2-folded-2", "ConstantFolding/StatefulPartitionedCall/sequential/module_wrapper/sep_conv_lst_m2d/while/body/_16/sequential/module_wrapper/sep_conv_lst_m2d/while/split_4-folded-2"], "device": "/device:CPU:0", "attr": {"explicit_paddings": {"list": {}}, "num_args": {"i": "1"}, "fused_ops": {"list": {"s": ["Qmlhc0FkZA=="]}}, "use_cudnn_on_gpu": {"b": true}, "filter_format": {"s": "SFdJTw=="}, "T": {"type": "DT_FLOAT"}, "dilations": {"list": {"i": ["1", "1", "1", "1"]}}, "epsilon": {"f": 0.0}, "strides": {"list": {"i": ["1", "1", "1", "1"]}}, "num_host_args": {"i": "0"}, "padding": {"s": "VkFMSUQ="}, "TArgs": {"list": {"type": ["DT_FLOAT"]}}, "leakyrelu_alpha": {"f": 0.2}, "data_format": {"s": "TkhXQw=="}}}, {"name": "StatefulPartitionedCall/sequential/module_wrapper_1/sep_conv_lst_m2d_1/Sum", "op": "Sum", "input": ["StatefulPartitionedCall/sequential/module_wrapper_1/sep_conv_lst_m2d_1/zeros_like", "StatefulPartitionedCall/sequential/module_wrapper_1/sep_conv_lst_m2d_1/Sum/reduction_indices"], "attr": {"keep_dims": {"b": false}, "T": {"type": "DT_FLOAT"}, "Tidx": {"type": "DT_INT32"}}}, {"name": "StatefulPartitionedCall/sequential/module_wrapper_1/sep_conv_lst_m2d_1/Shape", "op": "Shape", "input": ["StatefulPartitionedCall/sequential/module_wrapper_1/sep_conv_lst_m2d_1/transpose"], "attr": {"T": {"type": "DT_FLOAT"}, "out_type": {"type": "DT_INT32"}}, "experimentalType": {"typeId": "TFT_PRODUCT", "args": [{"typeId": "TFT_SHAPE_TENSOR", "args": [{"typeId": "TFT_INT32"}]}]}}, {"name": "StatefulPartitionedCall/sequential/module_wrapper_1/sep_conv_lst_m2d_1/TensorArrayUnstack/TensorListFromTensor", "op": "TensorListFromTensor", "input": ["StatefulPartitionedCall/sequential/module_wrapper_1/sep_conv_lst_m2d_1/transpose", "StatefulPartitionedCall/sequential/module_wrapper_1/sep_conv_lst_m2d_1/TensorArrayUnstack/TensorListFromTensor/element_shape"], "attr": {"shape_type": {"type": "DT_INT32"}, "element_dtype": {"type": "DT_FLOAT"}}, "experimentalType": {"typeId": "TFT_PRODUCT", "args": [{"typeId": "TFT_ARRAY", "args": [{"typeId": "TFT_TENSOR", "args": [{"typeId": "TFT_FLOAT"}]}]}]}}, {"name": "StatefulPartitionedCall/sequential/module_wrapper/sep_conv_lst_m2d/while/body/_16/sequential/module_wrapper/sep_conv_lst_m2d/while/add_6", "op": "AddV2", "input": ["StatefulPartitionedCall/sequential/module_wrapper/sep_conv_lst_m2d/while/body/_16/sequential/module_wrapper/sep_conv_lst_m2d/while/BiasAdd_3", "StatefulPartitionedCall/sequential/module_wrapper/sep_conv_lst_m2d/while/body/_16/sequential/module_wrapper/sep_conv_lst_m2d/while/separable_conv2d_7"], "attr": {"T": {"type": "DT_FLOAT"}}}, {"name": "StatefulPartitionedCall/sequential/module_wrapper/sep_conv_lst_m2d/while/body/_16/sequential/module_wrapper/sep_conv_lst_m2d/while/add_2", "op": "AddV2", "input": ["StatefulPartitionedCall/sequential/module_wrapper/sep_conv_lst_m2d/while/body/_16/sequential/module_wrapper/sep_conv_lst_m2d/while/BiasAdd_1", "StatefulPartitionedCall/sequential/module_wrapper/sep_conv_lst_m2d/while/body/_16/sequential/module_wrapper/sep_conv_lst_m2d/while/separable_conv2d_5"], "attr": {"T": {"type": "DT_FLOAT"}}}, {"name": "StatefulPartitionedCall/sequential/module_wrapper/sep_conv_lst_m2d/while/body/_16/sequential/module_wrapper/sep_conv_lst_m2d/while/add", "op": "AddV2", "input": ["StatefulPartitionedCall/sequential/module_wrapper/sep_conv_lst_m2d/while/body/_16/sequential/module_wrapper/sep_conv_lst_m2d/while/BiasAdd", "StatefulPartitionedCall/sequential/module_wrapper/sep_conv_lst_m2d/while/body/_16/sequential/module_wrapper/sep_conv_lst_m2d/while/separable_conv2d_4"], "attr": {"T": {"type": "DT_FLOAT"}}}, {"name": "StatefulPartitionedCall/sequential/module_wrapper/sep_conv_lst_m2d/while/body/_16/sequential/module_wrapper/sep_conv_lst_m2d/while/add_4", "op": "AddV2", "input": ["StatefulPartitionedCall/sequential/module_wrapper/sep_conv_lst_m2d/while/body/_16/sequential/module_wrapper/sep_conv_lst_m2d/while/BiasAdd_2", "StatefulPartitionedCall/sequential/module_wrapper/sep_conv_lst_m2d/while/body/_16/sequential/module_wrapper/sep_conv_lst_m2d/while/separable_conv2d_6"], "attr": {"T": {"type": "DT_FLOAT"}}}, {"name": "StatefulPartitionedCall/sequential/module_wrapper_1/sep_conv_lst_m2d_1/separable_conv2d/depthwise", "op": "DepthwiseConv2dNative", "input": ["StatefulPartitionedCall/sequential/module_wrapper_1/sep_conv_lst_m2d_1/Sum", "StatefulPartitionedCall/sequential/module_wrapper_1/sep_conv_lst_m2d_1/zeros"], "attr": {"explicit_paddings": {"list": {}}, "strides": {"list": {"i": ["1", "1", "1", "1"]}}, "data_format": {"s": "TkhXQw=="}, "dilations": {"list": {"i": ["1", "1", "1", "1"]}}, "padding": {"s": "U0FNRQ=="}, "T": {"type": "DT_FLOAT"}}}, {"name": "StatefulPartitionedCall/sequential/module_wrapper_1/sep_conv_lst_m2d_1/strided_slice", "op": "StridedSlice", "input": ["StatefulPartitionedCall/sequential/module_wrapper_1/sep_conv_lst_m2d_1/Shape", "StatefulPartitionedCall/sequential/module_wrapper_1/sep_conv_lst_m2d_1/strided_slice/stack", "StatefulPartitionedCall/sequential/module_wrapper_1/sep_conv_lst_m2d_1/strided_slice/stack_1", "StatefulPartitionedCall/sequential/module_wrapper_1/sep_conv_lst_m2d_1/strided_slice/stack_2"], "attr": {"T": {"type": "DT_INT32"}, "_has_manual_control_dependencies": {"b": true}, "Index": {"type": "DT_INT32"}, "new_axis_mask": {"i": "0"}, "begin_mask": {"i": "0"}, "end_mask": {"i": "0"}, "ellipsis_mask": {"i": "0"}, "shrink_axis_mask": {"i": "1"}}}, {"name": "StatefulPartitionedCall/sequential/module_wrapper/sep_conv_lst_m2d/while/body/_16/sequential/module_wrapper/sep_conv_lst_m2d/while/Mul_4", "op": "Mul", "input": ["StatefulPartitionedCall/sequential/module_wrapper/sep_conv_lst_m2d/while/body/_16/sequential/module_wrapper/sep_conv_lst_m2d/while/add_6", "StatefulPartitionedCall/sequential/module_wrapper/sep_conv_lst_m2d/while/body/_16/sequential/module_wrapper/sep_conv_lst_m2d/while/Const_4"], "attr": {"T": {"type": "DT_FLOAT"}}}, {"name": "StatefulPartitionedCall/sequential/module_wrapper/sep_conv_lst_m2d/while/body/_16/sequential/module_wrapper/sep_conv_lst_m2d/while/Mul_1", "op": "Mul", "input": ["StatefulPartitionedCall/sequential/module_wrapper/sep_conv_lst_m2d/while/body/_16/sequential/module_wrapper/sep_conv_lst_m2d/while/add_2", "StatefulPartitionedCall/sequential/module_wrapper/sep_conv_lst_m2d/while/body/_16/sequential/module_wrapper/sep_conv_lst_m2d/while/Const_2"], "attr": {"T": {"type": "DT_FLOAT"}}}, {"name": "StatefulPartitionedCall/sequential/module_wrapper/sep_conv_lst_m2d/while/body/_16/sequential/module_wrapper/sep_conv_lst_m2d/while/Mul", "op": "Mul", "input": ["StatefulPartitionedCall/sequential/module_wrapper/sep_conv_lst_m2d/while/body/_16/sequential/module_wrapper/sep_conv_lst_m2d/while/add", "StatefulPartitionedCall/sequential/module_wrapper/sep_conv_lst_m2d/while/body/_16/sequential/module_wrapper/sep_conv_lst_m2d/while/Const"], "attr": {"T": {"type": "DT_FLOAT"}}}, {"name": "StatefulPartitionedCall/sequential/module_wrapper/sep_conv_lst_m2d/while/body/_16/sequential/module_wrapper/sep_conv_lst_m2d/while/Tanh", "op": "Tanh", "input": ["StatefulPartitionedCall/sequential/module_wrapper/sep_conv_lst_m2d/while/body/_16/sequential/module_wrapper/sep_conv_lst_m2d/while/add_4"], "attr": {"T": {"type": "DT_FLOAT"}}}, {"name": "StatefulPartitionedCall/sequential/module_wrapper_1/sep_conv_lst_m2d_1/separable_conv2d", "op": "Conv2D", "input": ["StatefulPartitionedCall/sequential/module_wrapper_1/sep_conv_lst_m2d_1/separable_conv2d/depthwise", "StatefulPartitionedCall/sequential/module_wrapper_1/sep_conv_lst_m2d_1/zeros_1"], "device": "/device:CPU:0", "attr": {"padding": {"s": "VkFMSUQ="}, "strides": {"list": {"i": ["1", "1", "1", "1"]}}, "dilations": {"list": {"i": ["1", "1", "1", "1"]}}, "data_format": {"s": "TkhXQw=="}, "_has_manual_control_dependencies": {"b": true}, "use_cudnn_on_gpu": {"b": true}, "explicit_paddings": {"list": {}}, "T": {"type": "DT_FLOAT"}}}, {"name": "StatefulPartitionedCall/sequential/module_wrapper_1/sep_conv_lst_m2d_1/TensorArrayV2_1", "op": "TensorListReserve", "input": ["StatefulPartitionedCall/sequential/module_wrapper_1/sep_conv_lst_m2d_1/TensorArrayV2_1/element_shape", "StatefulPartitionedCall/sequential/module_wrapper_1/sep_conv_lst_m2d_1/strided_slice"], "attr": {"_has_manual_control_dependencies": {"b": true}, "element_dtype": {"type": "DT_FLOAT"}, "shape_type": {"type": "DT_INT32"}}, "experimentalType": {"typeId": "TFT_PRODUCT", "args": [{"typeId": "TFT_ARRAY", "args": [{"typeId": "TFT_TENSOR", "args": [{"typeId": "TFT_FLOAT"}]}]}]}}, {"name": "StatefulPartitionedCall/sequential/module_wrapper/sep_conv_lst_m2d/while/body/_16/sequential/module_wrapper/sep_conv_lst_m2d/while/Add_7", "op": "AddV2", "input": ["StatefulPartitionedCall/sequential/module_wrapper/sep_conv_lst_m2d/while/body/_16/sequential/module_wrapper/sep_conv_lst_m2d/while/Mul_4", "StatefulPartitionedCall/sequential/module_wrapper/sep_conv_lst_m2d/while/body/_16/sequential/module_wrapper/sep_conv_lst_m2d/while/Const_5"], "attr": {"T": {"type": "DT_FLOAT"}}}, {"name": "StatefulPartitionedCall/sequential/module_wrapper/sep_conv_lst_m2d/while/body/_16/sequential/module_wrapper/sep_conv_lst_m2d/while/Add_3", "op": "AddV2", "input": ["StatefulPartitionedCall/sequential/module_wrapper/sep_conv_lst_m2d/while/body/_16/sequential/module_wrapper/sep_conv_lst_m2d/while/Mul_1", "StatefulPartitionedCall/sequential/module_wrapper/sep_conv_lst_m2d/while/body/_16/sequential/module_wrapper/sep_conv_lst_m2d/while/Const_3"], "attr": {"T": {"type": "DT_FLOAT"}}}, {"name": "StatefulPartitionedCall/sequential/module_wrapper/sep_conv_lst_m2d/while/body/_16/sequential/module_wrapper/sep_conv_lst_m2d/while/Add_1", "op": "AddV2", "input": ["StatefulPartitionedCall/sequential/module_wrapper/sep_conv_lst_m2d/while/body/_16/sequential/module_wrapper/sep_conv_lst_m2d/while/Mul", "StatefulPartitionedCall/sequential/module_wrapper/sep_conv_lst_m2d/while/body/_16/sequential/module_wrapper/sep_conv_lst_m2d/while/Const_1"], "attr": {"T": {"type": "DT_FLOAT"}}}, {"name": "StatefulPartitionedCall/sequential/module_wrapper_1/sep_conv_lst_m2d_1/while/LoopControlInputs/_81", "op": "NoOp", "input": ["^StatefulPartitionedCall/sequential/module_wrapper_1/sep_conv_lst_m2d_1/TensorArrayV2_1", "^StatefulPartitionedCall/sequential/module_wrapper_1/sep_conv_lst_m2d_1/separable_conv2d", "^StatefulPartitionedCall/sequential/module_wrapper_1/sep_conv_lst_m2d_1/TensorArrayUnstack/TensorListFromTensor"], "attr": {"_has_manual_control_dependencies": {"b": true}}}, {"name": "StatefulPartitionedCall/sequential/module_wrapper/sep_conv_lst_m2d/while/body/_16/sequential/module_wrapper/sep_conv_lst_m2d/while/clip_by_value_2/Minimum", "op": "Minimum", "input": ["StatefulPartitionedCall/sequential/module_wrapper/sep_conv_lst_m2d/while/body/_16/sequential/module_wrapper/sep_conv_lst_m2d/while/Add_7", "StatefulPartitionedCall/sequential/module_wrapper/sep_conv_lst_m2d/while/body/_16/sequential/module_wrapper/sep_conv_lst_m2d/while/clip_by_value_2/Minimum/y"], "attr": {"T": {"type": "DT_FLOAT"}}}, {"name": "StatefulPartitionedCall/sequential/module_wrapper/sep_conv_lst_m2d/while/body/_16/sequential/module_wrapper/sep_conv_lst_m2d/while/clip_by_value_1/Minimum", "op": "Minimum", "input": ["StatefulPartitionedCall/sequential/module_wrapper/sep_conv_lst_m2d/while/body/_16/sequential/module_wrapper/sep_conv_lst_m2d/while/Add_3", "StatefulPartitionedCall/sequential/module_wrapper/sep_conv_lst_m2d/while/body/_16/sequential/module_wrapper/sep_conv_lst_m2d/while/clip_by_value_1/Minimum/y"], "attr": {"T": {"type": "DT_FLOAT"}}}, {"name": "StatefulPartitionedCall/sequential/module_wrapper/sep_conv_lst_m2d/while/body/_16/sequential/module_wrapper/sep_conv_lst_m2d/while/clip_by_value/Minimum", "op": "Minimum", "input": ["StatefulPartitionedCall/sequential/module_wrapper/sep_conv_lst_m2d/while/body/_16/sequential/module_wrapper/sep_conv_lst_m2d/while/Add_1", "StatefulPartitionedCall/sequential/module_wrapper/sep_conv_lst_m2d/while/body/_16/sequential/module_wrapper/sep_conv_lst_m2d/while/clip_by_value/Minimum/y"], "attr": {"T": {"type": "DT_FLOAT"}}}, {"name": "StatefulPartitionedCall/sequential/module_wrapper_1/sep_conv_lst_m2d_1/while/enter/_69", "op": "Enter", "input": ["StatefulPartitionedCall/sequential/module_wrapper_1/sep_conv_lst_m2d_1/while/maximum_iterations", "^StatefulPartitionedCall/sequential/module_wrapper_1/sep_conv_lst_m2d_1/while/LoopControlInputs/_81"], "attr": {"is_constant": {"b": false}, "frame_name": {"s": "U3RhdGVmdWxQYXJ0aXRpb25lZENhbGwvc2VxdWVudGlhbC9tb2R1bGVfd3JhcHBlcl8xL3NlcF9jb252X2xzdF9tMmRfMS93aGlsZQ=="}, "T": {"type": "DT_INT32"}, "parallel_iterations": {"i": "32"}}}, {"name": "StatefulPartitionedCall/sequential/module_wrapper_1/sep_conv_lst_m2d_1/while/enter/_73", "op": "Enter", "input": ["StatefulPartitionedCall/sequential/module_wrapper_1/sep_conv_lst_m2d_1/separable_conv2d", "^StatefulPartitionedCall/sequential/module_wrapper_1/sep_conv_lst_m2d_1/while/LoopControlInputs/_81"], "attr": {"parallel_iterations": {"i": "32"}, "is_constant": {"b": false}, "T": {"type": "DT_FLOAT"}, "frame_name": {"s": "U3RhdGVmdWxQYXJ0aXRpb25lZENhbGwvc2VxdWVudGlhbC9tb2R1bGVfd3JhcHBlcl8xL3NlcF9jb252X2xzdF9tMmRfMS93aGlsZQ=="}}}, {"name": "StatefulPartitionedCall/sequential/module_wrapper_1/sep_conv_lst_m2d_1/while/enter/_71", "op": "Enter", "input": ["StatefulPartitionedCall/sequential/module_wrapper_1/sep_conv_lst_m2d_1/TensorArrayV2_1", "^StatefulPartitionedCall/sequential/module_wrapper_1/sep_conv_lst_m2d_1/while/LoopControlInputs/_81"], "attr": {"is_constant": {"b": false}, "T": {"type": "DT_VARIANT"}, "parallel_iterations": {"i": "32"}, "frame_name": {"s": "U3RhdGVmdWxQYXJ0aXRpb25lZENhbGwvc2VxdWVudGlhbC9tb2R1bGVfd3JhcHBlcl8xL3NlcF9jb252X2xzdF9tMmRfMS93aGlsZQ=="}}}, {"name": "StatefulPartitionedCall/sequential/module_wrapper_1/sep_conv_lst_m2d_1/while/enter/_72", "op": "Enter", "input": ["StatefulPartitionedCall/sequential/module_wrapper_1/sep_conv_lst_m2d_1/separable_conv2d", "^StatefulPartitionedCall/sequential/module_wrapper_1/sep_conv_lst_m2d_1/while/LoopControlInputs/_81"], "attr": {"is_constant": {"b": false}, "parallel_iterations": {"i": "32"}, "T": {"type": "DT_FLOAT"}, "frame_name": {"s": "U3RhdGVmdWxQYXJ0aXRpb25lZENhbGwvc2VxdWVudGlhbC9tb2R1bGVfd3JhcHBlcl8xL3NlcF9jb252X2xzdF9tMmRfMS93aGlsZQ=="}}}, {"name": "StatefulPartitionedCall/sequential/module_wrapper_1/sep_conv_lst_m2d_1/while/enter/_75", "op": "Enter", "input": ["StatefulPartitionedCall/sequential/module_wrapper_1/sep_conv_lst_m2d_1/TensorArrayUnstack/TensorListFromTensor", "^StatefulPartitionedCall/sequential/module_wrapper_1/sep_conv_lst_m2d_1/while/LoopControlInputs/_81"], "attr": {"is_constant": {"b": false}, "parallel_iterations": {"i": "32"}, "frame_name": {"s": "U3RhdGVmdWxQYXJ0aXRpb25lZENhbGwvc2VxdWVudGlhbC9tb2R1bGVfd3JhcHBlcl8xL3NlcF9jb252X2xzdF9tMmRfMS93aGlsZQ=="}, "T": {"type": "DT_VARIANT"}}}, {"name": "StatefulPartitionedCall/sequential/module_wrapper_1/sep_conv_lst_m2d_1/while/enter/_74", "op": "Enter", "input": ["StatefulPartitionedCall/sequential/module_wrapper_1/sep_conv_lst_m2d_1/strided_slice", "^StatefulPartitionedCall/sequential/module_wrapper_1/sep_conv_lst_m2d_1/while/LoopControlInputs/_81"], "attr": {"frame_name": {"s": "U3RhdGVmdWxQYXJ0aXRpb25lZENhbGwvc2VxdWVudGlhbC9tb2R1bGVfd3JhcHBlcl8xL3NlcF9jb252X2xzdF9tMmRfMS93aGlsZQ=="}, "is_constant": {"b": false}, "T": {"type": "DT_INT32"}, "parallel_iterations": {"i": "32"}}}, {"name": "StatefulPartitionedCall/sequential/module_wrapper_1/sep_conv_lst_m2d_1/while/enter/_70", "op": "Enter", "input": ["StatefulPartitionedCall/sequential/module_wrapper_1/sep_conv_lst_m2d_1/time", "^StatefulPartitionedCall/sequential/module_wrapper_1/sep_conv_lst_m2d_1/while/LoopControlInputs/_81"], "attr": {"frame_name": {"s": "U3RhdGVmdWxQYXJ0aXRpb25lZENhbGwvc2VxdWVudGlhbC9tb2R1bGVfd3JhcHBlcl8xL3NlcF9jb252X2xzdF9tMmRfMS93aGlsZQ=="}, "parallel_iterations": {"i": "32"}, "is_constant": {"b": false}, "T": {"type": "DT_INT32"}}}, {"name": "StatefulPartitionedCall/sequential/module_wrapper_1/sep_conv_lst_m2d_1/while/enter/_68", "op": "Enter", "input": ["StatefulPartitionedCall/sequential/module_wrapper_1/sep_conv_lst_m2d_1/while/loop_counter", "^StatefulPartitionedCall/sequential/module_wrapper_1/sep_conv_lst_m2d_1/while/LoopControlInputs/_81"], "attr": {"is_constant": {"b": false}, "T": {"type": "DT_INT32"}, "parallel_iterations": {"i": "32"}, "frame_name": {"s": "U3RhdGVmdWxQYXJ0aXRpb25lZENhbGwvc2VxdWVudGlhbC9tb2R1bGVfd3JhcHBlcl8xL3NlcF9jb252X2xzdF9tMmRfMS93aGlsZQ=="}}}, {"name": "StatefulPartitionedCall/sequential/module_wrapper_1/sep_conv_lst_m2d_1/while/enter/_76", "op": "Enter", "input": ["Func/StatefulPartitionedCall/input/_6", "^StatefulPartitionedCall/sequential/module_wrapper_1/sep_conv_lst_m2d_1/while/LoopControlInputs/_81"], "attr": {"T": {"type": "DT_FLOAT"}, "is_constant": {"b": true}, "parallel_iterations": {"i": "32"}, "frame_name": {"s": "U3RhdGVmdWxQYXJ0aXRpb25lZENhbGwvc2VxdWVudGlhbC9tb2R1bGVfd3JhcHBlcl8xL3NlcF9jb252X2xzdF9tMmRfMS93aGlsZQ=="}}}, {"name": "StatefulPartitionedCall/sequential/module_wrapper_1/sep_conv_lst_m2d_1/while/enter/_77", "op": "Enter", "input": ["Func/StatefulPartitionedCall/input/_7", "^StatefulPartitionedCall/sequential/module_wrapper_1/sep_conv_lst_m2d_1/while/LoopControlInputs/_81"], "attr": {"T": {"type": "DT_FLOAT"}, "frame_name": {"s": "U3RhdGVmdWxQYXJ0aXRpb25lZENhbGwvc2VxdWVudGlhbC9tb2R1bGVfd3JhcHBlcl8xL3NlcF9jb252X2xzdF9tMmRfMS93aGlsZQ=="}, "parallel_iterations": {"i": "32"}, "is_constant": {"b": true}}}, {"name": "StatefulPartitionedCall/sequential/module_wrapper_1/sep_conv_lst_m2d_1/while/enter/_78", "op": "Enter", "input": ["Func/StatefulPartitionedCall/input/_8", "^StatefulPartitionedCall/sequential/module_wrapper_1/sep_conv_lst_m2d_1/while/LoopControlInputs/_81"], "attr": {"parallel_iterations": {"i": "32"}, "frame_name": {"s": "U3RhdGVmdWxQYXJ0aXRpb25lZENhbGwvc2VxdWVudGlhbC9tb2R1bGVfd3JhcHBlcl8xL3NlcF9jb252X2xzdF9tMmRfMS93aGlsZQ=="}, "T": {"type": "DT_FLOAT"}, "is_constant": {"b": true}}}, {"name": "StatefulPartitionedCall/sequential/module_wrapper_1/sep_conv_lst_m2d_1/while/enter/_79", "op": "Enter", "input": ["Func/StatefulPartitionedCall/input/_9", "^StatefulPartitionedCall/sequential/module_wrapper_1/sep_conv_lst_m2d_1/while/LoopControlInputs/_81"], "attr": {"is_constant": {"b": true}, "frame_name": {"s": "U3RhdGVmdWxQYXJ0aXRpb25lZENhbGwvc2VxdWVudGlhbC9tb2R1bGVfd3JhcHBlcl8xL3NlcF9jb252X2xzdF9tMmRfMS93aGlsZQ=="}, "T": {"type": "DT_FLOAT"}, "parallel_iterations": {"i": "32"}}}, {"name": "StatefulPartitionedCall/sequential/module_wrapper_1/sep_conv_lst_m2d_1/while/enter/_80", "op": "Enter", "input": ["Func/StatefulPartitionedCall/input/_10", "^StatefulPartitionedCall/sequential/module_wrapper_1/sep_conv_lst_m2d_1/while/LoopControlInputs/_81"], "attr": {"is_constant": {"b": true}, "T": {"type": "DT_FLOAT"}, "parallel_iterations": {"i": "32"}, "frame_name": {"s": "U3RhdGVmdWxQYXJ0aXRpb25lZENhbGwvc2VxdWVudGlhbC9tb2R1bGVfd3JhcHBlcl8xL3NlcF9jb252X2xzdF9tMmRfMS93aGlsZQ=="}}}, {"name": "StatefulPartitionedCall/sequential/module_wrapper/sep_conv_lst_m2d/while/body/_16/sequential/module_wrapper/sep_conv_lst_m2d/while/clip_by_value_2", "op": "Maximum", "input": ["StatefulPartitionedCall/sequential/module_wrapper/sep_conv_lst_m2d/while/body/_16/sequential/module_wrapper/sep_conv_lst_m2d/while/clip_by_value_2/Minimum", "StatefulPartitionedCall/sequential/module_wrapper/sep_conv_lst_m2d/while/body/_16/sequential/module_wrapper/sep_conv_lst_m2d/while/clip_by_value_2/y"], "attr": {"T": {"type": "DT_FLOAT"}}}, {"name": "StatefulPartitionedCall/sequential/module_wrapper/sep_conv_lst_m2d/while/body/_16/sequential/module_wrapper/sep_conv_lst_m2d/while/clip_by_value_1", "op": "Maximum", "input": ["StatefulPartitionedCall/sequential/module_wrapper/sep_conv_lst_m2d/while/body/_16/sequential/module_wrapper/sep_conv_lst_m2d/while/clip_by_value_1/Minimum", "StatefulPartitionedCall/sequential/module_wrapper/sep_conv_lst_m2d/while/body/_16/sequential/module_wrapper/sep_conv_lst_m2d/while/clip_by_value_1/y"], "attr": {"T": {"type": "DT_FLOAT"}}}, {"name": "StatefulPartitionedCall/sequential/module_wrapper/sep_conv_lst_m2d/while/body/_16/sequential/module_wrapper/sep_conv_lst_m2d/while/clip_by_value", "op": "Maximum", "input": ["StatefulPartitionedCall/sequential/module_wrapper/sep_conv_lst_m2d/while/body/_16/sequential/module_wrapper/sep_conv_lst_m2d/while/clip_by_value/Minimum", "StatefulPartitionedCall/sequential/module_wrapper/sep_conv_lst_m2d/while/body/_16/sequential/module_wrapper/sep_conv_lst_m2d/while/clip_by_value/y"], "attr": {"T": {"type": "DT_FLOAT"}}}, {"name": "StatefulPartitionedCall/sequential/module_wrapper_1/sep_conv_lst_m2d_1/while/merge/_83", "op": "Merge", "input": ["StatefulPartitionedCall/sequential/module_wrapper_1/sep_conv_lst_m2d_1/while/enter/_69", "StatefulPartitionedCall/sequential/module_wrapper_1/sep_conv_lst_m2d_1/while/next_iteration/_110"], "attr": {"N": {"i": "2"}, "_has_manual_control_dependencies": {"b": true}, "T": {"type": "DT_INT32"}}}, {"name": "StatefulPartitionedCall/sequential/module_wrapper_1/sep_conv_lst_m2d_1/while/merge/_87", "op": "Merge", "input": ["StatefulPartitionedCall/sequential/module_wrapper_1/sep_conv_lst_m2d_1/while/enter/_73", "StatefulPartitionedCall/sequential/module_wrapper_1/sep_conv_lst_m2d_1/while/next_iteration/_114"], "attr": {"_has_manual_control_dependencies": {"b": true}, "N": {"i": "2"}, "T": {"type": "DT_FLOAT"}}}, {"name": "StatefulPartitionedCall/sequential/module_wrapper_1/sep_conv_lst_m2d_1/while/merge/_85", "op": "Merge", "input": ["StatefulPartitionedCall/sequential/module_wrapper_1/sep_conv_lst_m2d_1/while/enter/_71", "StatefulPartitionedCall/sequential/module_wrapper_1/sep_conv_lst_m2d_1/while/next_iteration/_112"], "attr": {"_has_manual_control_dependencies": {"b": true}, "T": {"type": "DT_VARIANT"}, "N": {"i": "2"}}}, {"name": "StatefulPartitionedCall/sequential/module_wrapper_1/sep_conv_lst_m2d_1/while/merge/_86", "op": "Merge", "input": ["StatefulPartitionedCall/sequential/module_wrapper_1/sep_conv_lst_m2d_1/while/enter/_72", "StatefulPartitionedCall/sequential/module_wrapper_1/sep_conv_lst_m2d_1/while/next_iteration/_113"], "attr": {"T": {"type": "DT_FLOAT"}, "N": {"i": "2"}, "_has_manual_control_dependencies": {"b": true}}}, {"name": "StatefulPartitionedCall/sequential/module_wrapper_1/sep_conv_lst_m2d_1/while/merge/_89", "op": "Merge", "input": ["StatefulPartitionedCall/sequential/module_wrapper_1/sep_conv_lst_m2d_1/while/enter/_75", "StatefulPartitionedCall/sequential/module_wrapper_1/sep_conv_lst_m2d_1/while/next_iteration/_116"], "attr": {"N": {"i": "2"}, "T": {"type": "DT_VARIANT"}}}, {"name": "StatefulPartitionedCall/sequential/module_wrapper_1/sep_conv_lst_m2d_1/while/merge/_88", "op": "Merge", "input": ["StatefulPartitionedCall/sequential/module_wrapper_1/sep_conv_lst_m2d_1/while/enter/_74", "StatefulPartitionedCall/sequential/module_wrapper_1/sep_conv_lst_m2d_1/while/next_iteration/_115"], "attr": {"_has_manual_control_dependencies": {"b": true}, "T": {"type": "DT_INT32"}, "N": {"i": "2"}}}, {"name": "StatefulPartitionedCall/sequential/module_wrapper_1/sep_conv_lst_m2d_1/while/merge/_84", "op": "Merge", "input": ["StatefulPartitionedCall/sequential/module_wrapper_1/sep_conv_lst_m2d_1/while/enter/_70", "StatefulPartitionedCall/sequential/module_wrapper_1/sep_conv_lst_m2d_1/while/next_iteration/_111"], "attr": {"N": {"i": "2"}, "_has_manual_control_dependencies": {"b": true}, "T": {"type": "DT_INT32"}}}, {"name": "StatefulPartitionedCall/sequential/module_wrapper_1/sep_conv_lst_m2d_1/while/merge/_82", "op": "Merge", "input": ["StatefulPartitionedCall/sequential/module_wrapper_1/sep_conv_lst_m2d_1/while/enter/_68", "StatefulPartitionedCall/sequential/module_wrapper_1/sep_conv_lst_m2d_1/while/next_iteration/_109"], "attr": {"N": {"i": "2"}, "T": {"type": "DT_INT32"}, "_has_manual_control_dependencies": {"b": true}}}, {"name": "StatefulPartitionedCall/sequential/module_wrapper/sep_conv_lst_m2d/while/body/_16/sequential/module_wrapper/sep_conv_lst_m2d/while/mul_2", "op": "Mul", "input": ["StatefulPartitionedCall/sequential/module_wrapper/sep_conv_lst_m2d/while/body/_16/sequential/module_wrapper/sep_conv_lst_m2d/while/clip_by_value_1", "StatefulPartitionedCall/sequential/module_wrapper/sep_conv_lst_m2d/while/StatefulPartitionedCall/sequential/module_wrapper/sep_conv_lst_m2d/separable_conv2d_switch/_45:1"], "attr": {"T": {"type": "DT_FLOAT"}}}, {"name": "StatefulPartitionedCall/sequential/module_wrapper/sep_conv_lst_m2d/while/body/_16/sequential/module_wrapper/sep_conv_lst_m2d/while/mul_3", "op": "Mul", "input": ["StatefulPartitionedCall/sequential/module_wrapper/sep_conv_lst_m2d/while/body/_16/sequential/module_wrapper/sep_conv_lst_m2d/while/clip_by_value", "StatefulPartitionedCall/sequential/module_wrapper/sep_conv_lst_m2d/while/body/_16/sequential/module_wrapper/sep_conv_lst_m2d/while/Tanh"], "attr": {"T": {"type": "DT_FLOAT"}}}, {"name": "StatefulPartitionedCall/sequential/module_wrapper_1/sep_conv_lst_m2d_1/while/cond/_66/sequential/module_wrapper_1/sep_conv_lst_m2d_1/while/Less", "op": "Less", "input": ["StatefulPartitionedCall/sequential/module_wrapper_1/sep_conv_lst_m2d_1/while/merge/_84", "StatefulPartitionedCall/sequential/module_wrapper_1/sep_conv_lst_m2d_1/while/merge/_88", "^StatefulPartitionedCall/sequential/module_wrapper_1/sep_conv_lst_m2d_1/while/merge/_89", "^StatefulPartitionedCall/sequential/module_wrapper_1/sep_conv_lst_m2d_1/while/enter/_76", "^StatefulPartitionedCall/sequential/module_wrapper_1/sep_conv_lst_m2d_1/while/enter/_77", "^StatefulPartitionedCall/sequential/module_wrapper_1/sep_conv_lst_m2d_1/while/enter/_78", "^StatefulPartitionedCall/sequential/module_wrapper_1/sep_conv_lst_m2d_1/while/enter/_79", "^StatefulPartitionedCall/sequential/module_wrapper_1/sep_conv_lst_m2d_1/while/enter/_80", "^StatefulPartitionedCall/sequential/module_wrapper_1/sep_conv_lst_m2d_1/while/merge/_82", "^StatefulPartitionedCall/sequential/module_wrapper_1/sep_conv_lst_m2d_1/while/merge/_83", "^StatefulPartitionedCall/sequential/module_wrapper_1/sep_conv_lst_m2d_1/while/merge/_85", "^StatefulPartitionedCall/sequential/module_wrapper_1/sep_conv_lst_m2d_1/while/merge/_86", "^StatefulPartitionedCall/sequential/module_wrapper_1/sep_conv_lst_m2d_1/while/merge/_87"], "attr": {"T": {"type": "DT_INT32"}}}, {"name": "StatefulPartitionedCall/sequential/module_wrapper/sep_conv_lst_m2d/while/body/_16/sequential/module_wrapper/sep_conv_lst_m2d/while/add_5", "op": "AddV2", "input": ["StatefulPartitionedCall/sequential/module_wrapper/sep_conv_lst_m2d/while/body/_16/sequential/module_wrapper/sep_conv_lst_m2d/while/mul_2", "StatefulPartitionedCall/sequential/module_wrapper/sep_conv_lst_m2d/while/body/_16/sequential/module_wrapper/sep_conv_lst_m2d/while/mul_3"], "attr": {"T": {"type": "DT_FLOAT"}}}, {"name": "StatefulPartitionedCall/sequential/module_wrapper_1/sep_conv_lst_m2d_1/while/LoopCond/_90", "op": "LoopCond", "input": ["StatefulPartitionedCall/sequential/module_wrapper_1/sep_conv_lst_m2d_1/while/cond/_66/sequential/module_wrapper_1/sep_conv_lst_m2d_1/while/Less"]}, {"name": "StatefulPartitionedCall/sequential/module_wrapper/sep_conv_lst_m2d/while/body/_16/sequential/module_wrapper/sep_conv_lst_m2d/while/Tanh_1", "op": "Tanh", "input": ["StatefulPartitionedCall/sequential/module_wrapper/sep_conv_lst_m2d/while/body/_16/sequential/module_wrapper/sep_conv_lst_m2d/while/add_5"], "attr": {"T": {"type": "DT_FLOAT"}}}, {"name": "StatefulPartitionedCall/sequential/module_wrapper/sep_conv_lst_m2d/while/next_iteration/_63", "op": "NextIteration", "input": ["StatefulPartitionedCall/sequential/module_wrapper/sep_conv_lst_m2d/while/body/_16/sequential/module_wrapper/sep_conv_lst_m2d/while/add_5", "^Func/StatefulPartitionedCall/sequential/module_wrapper/sep_conv_lst_m2d/while/body/_16/output_control_node/_159", "^StatefulPartitionedCall/sequential/module_wrapper/sep_conv_lst_m2d/while/body/_16/sequential/module_wrapper/sep_conv_lst_m2d/while/NoOp"], "attr": {"T": {"type": "DT_FLOAT"}}}, {"name": "StatefulPartitionedCall/sequential/module_wrapper_1/sep_conv_lst_m2d_1/while/StatefulPartitionedCall/sequential/module_wrapper_1/sep_conv_lst_m2d_1/TensorArrayV2_1_switch/_94", "op": "Switch", "input": ["StatefulPartitionedCall/sequential/module_wrapper_1/sep_conv_lst_m2d_1/while/merge/_85", "StatefulPartitionedCall/sequential/module_wrapper_1/sep_conv_lst_m2d_1/while/LoopCond/_90"], "attr": {"T": {"type": "DT_VARIANT"}, "_has_manual_control_dependencies": {"b": true}}}, {"name": "StatefulPartitionedCall/sequential/module_wrapper_1/sep_conv_lst_m2d_1/while/StatefulPartitionedCall/sequential/module_wrapper_1/sep_conv_lst_m2d_1/TensorArrayUnstack/TensorListFromTensor_switch/_98", "op": "Switch", "input": ["StatefulPartitionedCall/sequential/module_wrapper_1/sep_conv_lst_m2d_1/while/merge/_89", "StatefulPartitionedCall/sequential/module_wrapper_1/sep_conv_lst_m2d_1/while/LoopCond/_90"], "attr": {"T": {"type": "DT_VARIANT"}}}, {"name": "StatefulPartitionedCall/sequential/module_wrapper_1/sep_conv_lst_m2d_1/while/StatefulPartitionedCall/sequential/module_wrapper_1/sep_conv_lst_m2d_1/separable_conv2d_switch/_95", "op": "Switch", "input": ["StatefulPartitionedCall/sequential/module_wrapper_1/sep_conv_lst_m2d_1/while/merge/_86", "StatefulPartitionedCall/sequential/module_wrapper_1/sep_conv_lst_m2d_1/while/LoopCond/_90"], "attr": {"_has_manual_control_dependencies": {"b": true}, "T": {"type": "DT_FLOAT"}}}, {"name": "StatefulPartitionedCall/sequential/module_wrapper_1/sep_conv_lst_m2d_1/while/StatefulPartitionedCall/sequential/module_wrapper_1/sep_conv_lst_m2d_1/separable_conv2d_switch/_96", "op": "Switch", "input": ["StatefulPartitionedCall/sequential/module_wrapper_1/sep_conv_lst_m2d_1/while/merge/_87", "StatefulPartitionedCall/sequential/module_wrapper_1/sep_conv_lst_m2d_1/while/LoopCond/_90"], "attr": {"T": {"type": "DT_FLOAT"}, "_has_manual_control_dependencies": {"b": true}}}, {"name": "StatefulPartitionedCall/sequential/module_wrapper_1/sep_conv_lst_m2d_1/while/StatefulPartitionedCall/sequential/module_wrapper_1/sep_conv_lst_m2d_1/strided_slice_switch/_97", "op": "Switch", "input": ["StatefulPartitionedCall/sequential/module_wrapper_1/sep_conv_lst_m2d_1/while/merge/_88", "StatefulPartitionedCall/sequential/module_wrapper_1/sep_conv_lst_m2d_1/while/LoopCond/_90"], "attr": {"_has_manual_control_dependencies": {"b": true}, "T": {"type": "DT_INT32"}}}, {"name": "StatefulPartitionedCall/sequential/module_wrapper_1/sep_conv_lst_m2d_1/while/StatefulPartitionedCall/sequential/module_wrapper_1/sep_conv_lst_m2d_1/time_switch/_93", "op": "Switch", "input": ["StatefulPartitionedCall/sequential/module_wrapper_1/sep_conv_lst_m2d_1/while/merge/_84", "StatefulPartitionedCall/sequential/module_wrapper_1/sep_conv_lst_m2d_1/while/LoopCond/_90"], "attr": {"T": {"type": "DT_INT32"}, "_has_manual_control_dependencies": {"b": true}}}, {"name": "StatefulPartitionedCall/sequential/module_wrapper_1/sep_conv_lst_m2d_1/while/StatefulPartitionedCall/sequential/module_wrapper_1/sep_conv_lst_m2d_1/while/loop_counter_switch/_91", "op": "Switch", "input": ["StatefulPartitionedCall/sequential/module_wrapper_1/sep_conv_lst_m2d_1/while/merge/_82", "StatefulPartitionedCall/sequential/module_wrapper_1/sep_conv_lst_m2d_1/while/LoopCond/_90"], "attr": {"_has_manual_control_dependencies": {"b": true}, "T": {"type": "DT_INT32"}}}, {"name": "StatefulPartitionedCall/sequential/module_wrapper_1/sep_conv_lst_m2d_1/while/StatefulPartitionedCall/sequential/module_wrapper_1/sep_conv_lst_m2d_1/while/maximum_iterations_switch/_92", "op": "Switch", "input": ["StatefulPartitionedCall/sequential/module_wrapper_1/sep_conv_lst_m2d_1/while/merge/_83", "StatefulPartitionedCall/sequential/module_wrapper_1/sep_conv_lst_m2d_1/while/LoopCond/_90"], "attr": {"_has_manual_control_dependencies": {"b": true}, "T": {"type": "DT_INT32"}}}, {"name": "StatefulPartitionedCall/sequential/module_wrapper/sep_conv_lst_m2d/while/body/_16/sequential/module_wrapper/sep_conv_lst_m2d/while/mul_5", "op": "Mul", "input": ["StatefulPartitionedCall/sequential/module_wrapper/sep_conv_lst_m2d/while/body/_16/sequential/module_wrapper/sep_conv_lst_m2d/while/clip_by_value_2", "StatefulPartitionedCall/sequential/module_wrapper/sep_conv_lst_m2d/while/body/_16/sequential/module_wrapper/sep_conv_lst_m2d/while/Tanh_1"], "attr": {"T": {"type": "DT_FLOAT"}}}, {"name": "StatefulPartitionedCall/sequential/module_wrapper_1/sep_conv_lst_m2d_1/while/exit/_103", "op": "Exit", "input": ["StatefulPartitionedCall/sequential/module_wrapper_1/sep_conv_lst_m2d_1/while/StatefulPartitionedCall/sequential/module_wrapper_1/sep_conv_lst_m2d_1/TensorArrayV2_1_switch/_94"], "attr": {"T": {"type": "DT_VARIANT"}, "_has_manual_control_dependencies": {"b": true}}}, {"name": "StatefulPartitionedCall/sequential/module_wrapper_1/sep_conv_lst_m2d_1/while/exit/_107", "op": "Exit", "input": ["StatefulPartitionedCall/sequential/module_wrapper_1/sep_conv_lst_m2d_1/while/StatefulPartitionedCall/sequential/module_wrapper_1/sep_conv_lst_m2d_1/TensorArrayUnstack/TensorListFromTensor_switch/_98"], "attr": {"T": {"type": "DT_VARIANT"}, "_has_manual_control_dependencies": {"b": true}}}, {"name": "StatefulPartitionedCall/sequential/module_wrapper_1/sep_conv_lst_m2d_1/while/exit/_104", "op": "Exit", "input": ["StatefulPartitionedCall/sequential/module_wrapper_1/sep_conv_lst_m2d_1/while/StatefulPartitionedCall/sequential/module_wrapper_1/sep_conv_lst_m2d_1/separable_conv2d_switch/_95"], "attr": {"T": {"type": "DT_FLOAT"}, "_has_manual_control_dependencies": {"b": true}}}, {"name": "StatefulPartitionedCall/sequential/module_wrapper_1/sep_conv_lst_m2d_1/while/exit/_105", "op": "Exit", "input": ["StatefulPartitionedCall/sequential/module_wrapper_1/sep_conv_lst_m2d_1/while/StatefulPartitionedCall/sequential/module_wrapper_1/sep_conv_lst_m2d_1/separable_conv2d_switch/_96"], "attr": {"T": {"type": "DT_FLOAT"}, "_has_manual_control_dependencies": {"b": true}}}, {"name": "StatefulPartitionedCall/sequential/module_wrapper_1/sep_conv_lst_m2d_1/while/exit/_106", "op": "Exit", "input": ["StatefulPartitionedCall/sequential/module_wrapper_1/sep_conv_lst_m2d_1/while/StatefulPartitionedCall/sequential/module_wrapper_1/sep_conv_lst_m2d_1/strided_slice_switch/_97"], "attr": {"_has_manual_control_dependencies": {"b": true}, "T": {"type": "DT_INT32"}}}, {"name": "StatefulPartitionedCall/sequential/module_wrapper_1/sep_conv_lst_m2d_1/while/exit/_102", "op": "Exit", "input": ["StatefulPartitionedCall/sequential/module_wrapper_1/sep_conv_lst_m2d_1/while/StatefulPartitionedCall/sequential/module_wrapper_1/sep_conv_lst_m2d_1/time_switch/_93"], "attr": {"_has_manual_control_dependencies": {"b": true}, "T": {"type": "DT_INT32"}}}, {"name": "StatefulPartitionedCall/sequential/module_wrapper_1/sep_conv_lst_m2d_1/while/exit/_100", "op": "Exit", "input": ["StatefulPartitionedCall/sequential/module_wrapper_1/sep_conv_lst_m2d_1/while/StatefulPartitionedCall/sequential/module_wrapper_1/sep_conv_lst_m2d_1/while/loop_counter_switch/_91"], "attr": {"T": {"type": "DT_INT32"}, "_has_manual_control_dependencies": {"b": true}}}, {"name": "StatefulPartitionedCall/sequential/module_wrapper_1/sep_conv_lst_m2d_1/while/loop_body_control/_99", "op": "Identity", "input": ["StatefulPartitionedCall/sequential/module_wrapper_1/sep_conv_lst_m2d_1/while/StatefulPartitionedCall/sequential/module_wrapper_1/sep_conv_lst_m2d_1/while/loop_counter_switch/_91:1"], "attr": {"_has_manual_control_dependencies": {"b": true}, "T": {"type": "DT_INT32"}}}, {"name": "StatefulPartitionedCall/sequential/module_wrapper_1/sep_conv_lst_m2d_1/while/exit/_101", "op": "Exit", "input": ["StatefulPartitionedCall/sequential/module_wrapper_1/sep_conv_lst_m2d_1/while/StatefulPartitionedCall/sequential/module_wrapper_1/sep_conv_lst_m2d_1/while/maximum_iterations_switch/_92"], "attr": {"T": {"type": "DT_INT32"}, "_has_manual_control_dependencies": {"b": true}}}, {"name": "StatefulPartitionedCall/sequential/module_wrapper/sep_conv_lst_m2d/while/body/_16/sequential/module_wrapper/sep_conv_lst_m2d/while/TensorArrayV2Write/TensorListSetItem", "op": "TensorListSetItem", "input": ["StatefulPartitionedCall/sequential/module_wrapper/sep_conv_lst_m2d/while/StatefulPartitionedCall/sequential/module_wrapper/sep_conv_lst_m2d/TensorArrayV2_1_switch/_43:1", "Func/StatefulPartitionedCall/sequential/module_wrapper/sep_conv_lst_m2d/while/body/_16/input/_135", "StatefulPartitionedCall/sequential/module_wrapper/sep_conv_lst_m2d/while/body/_16/sequential/module_wrapper/sep_conv_lst_m2d/while/mul_5"], "attr": {"element_dtype": {"type": "DT_FLOAT"}, "resize_if_index_out_of_bounds": {"b": false}}, "experimentalType": {"typeId": "TFT_PRODUCT", "args": [{"typeId": "TFT_ARRAY", "args": [{"typeId": "TFT_TENSOR", "args": [{"typeId": "TFT_FLOAT"}]}]}]}}, {"name": "StatefulPartitionedCall/sequential/module_wrapper/sep_conv_lst_m2d/while/next_iteration/_62", "op": "NextIteration", "input": ["StatefulPartitionedCall/sequential/module_wrapper/sep_conv_lst_m2d/while/body/_16/sequential/module_wrapper/sep_conv_lst_m2d/while/mul_5", "^Func/StatefulPartitionedCall/sequential/module_wrapper/sep_conv_lst_m2d/while/body/_16/output_control_node/_159", "^StatefulPartitionedCall/sequential/module_wrapper/sep_conv_lst_m2d/while/body/_16/sequential/module_wrapper/sep_conv_lst_m2d/while/NoOp"], "attr": {"T": {"type": "DT_FLOAT"}}}, {"name": "StatefulPartitionedCall/sequential/module_wrapper_1/sep_conv_lst_m2d_1/TensorArrayV2Stack/TensorListStack", "op": "TensorListStack", "input": ["StatefulPartitionedCall/sequential/module_wrapper_1/sep_conv_lst_m2d_1/while/exit/_103", "StatefulPartitionedCall/sequential/module_wrapper_1/sep_conv_lst_m2d_1/TensorArrayV2Stack/TensorListStack/element_shape"], "attr": {"num_elements": {"i": "-1"}, "element_dtype": {"type": "DT_FLOAT"}}}, {"name": "Func/StatefulPartitionedCall/sequential/module_wrapper_1/sep_conv_lst_m2d_1/while/body/_67/input_control_node/_175", "op": "NoOp", "input": ["^StatefulPartitionedCall/sequential/module_wrapper_1/sep_conv_lst_m2d_1/while/StatefulPartitionedCall/sequential/module_wrapper_1/sep_conv_lst_m2d_1/TensorArrayUnstack/TensorListFromTensor_switch/_98", "^StatefulPartitionedCall/sequential/module_wrapper_1/sep_conv_lst_m2d_1/while/StatefulPartitionedCall/sequential/module_wrapper_1/sep_conv_lst_m2d_1/TensorArrayV2_1_switch/_94", "^StatefulPartitionedCall/sequential/module_wrapper_1/sep_conv_lst_m2d_1/while/StatefulPartitionedCall/sequential/module_wrapper_1/sep_conv_lst_m2d_1/separable_conv2d_switch/_95", "^StatefulPartitionedCall/sequential/module_wrapper_1/sep_conv_lst_m2d_1/while/StatefulPartitionedCall/sequential/module_wrapper_1/sep_conv_lst_m2d_1/separable_conv2d_switch/_96", "^StatefulPartitionedCall/sequential/module_wrapper_1/sep_conv_lst_m2d_1/while/StatefulPartitionedCall/sequential/module_wrapper_1/sep_conv_lst_m2d_1/strided_slice_switch/_97", "^StatefulPartitionedCall/sequential/module_wrapper_1/sep_conv_lst_m2d_1/while/StatefulPartitionedCall/sequential/module_wrapper_1/sep_conv_lst_m2d_1/time_switch/_93", "^StatefulPartitionedCall/sequential/module_wrapper_1/sep_conv_lst_m2d_1/while/loop_body_control/_99", "^StatefulPartitionedCall/sequential/module_wrapper_1/sep_conv_lst_m2d_1/while/StatefulPartitionedCall/sequential/module_wrapper_1/sep_conv_lst_m2d_1/while/maximum_iterations_switch/_92", "^StatefulPartitionedCall/sequential/module_wrapper_1/sep_conv_lst_m2d_1/while/enter/_76", "^StatefulPartitionedCall/sequential/module_wrapper_1/sep_conv_lst_m2d_1/while/enter/_77", "^StatefulPartitionedCall/sequential/module_wrapper_1/sep_conv_lst_m2d_1/while/enter/_78", "^StatefulPartitionedCall/sequential/module_wrapper_1/sep_conv_lst_m2d_1/while/enter/_79", "^StatefulPartitionedCall/sequential/module_wrapper_1/sep_conv_lst_m2d_1/while/enter/_80"], "attr": {"_has_manual_control_dependencies": {"b": true}}}, {"name": "StatefulPartitionedCall/sequential/module_wrapper/sep_conv_lst_m2d/while/next_iteration/_61", "op": "NextIteration", "input": ["StatefulPartitionedCall/sequential/module_wrapper/sep_conv_lst_m2d/while/body/_16/sequential/module_wrapper/sep_conv_lst_m2d/while/TensorArrayV2Write/TensorListSetItem", "^Func/StatefulPartitionedCall/sequential/module_wrapper/sep_conv_lst_m2d/while/body/_16/output_control_node/_159", "^StatefulPartitionedCall/sequential/module_wrapper/sep_conv_lst_m2d/while/body/_16/sequential/module_wrapper/sep_conv_lst_m2d/while/NoOp"], "attr": {"T": {"type": "DT_VARIANT"}}}, {"name": "StatefulPartitionedCall/sequential/module_wrapper_1/sep_conv_lst_m2d_1/transpose_1", "op": "Transpose", "input": ["StatefulPartitionedCall/sequential/module_wrapper_1/sep_conv_lst_m2d_1/TensorArrayV2Stack/TensorListStack", "StatefulPartitionedCall/sequential/module_wrapper_1/sep_conv_lst_m2d_1/transpose_1/perm"], "attr": {"Tperm": {"type": "DT_INT32"}, "T": {"type": "DT_FLOAT"}}}, {"name": "ConstantFolding/StatefulPartitionedCall/sequential/module_wrapper_1/sep_conv_lst_m2d_1/while/body/_67/sequential/module_wrapper_1/sep_conv_lst_m2d_1/while/split-folded-3", "op": "Const", "input": ["^Func/StatefulPartitionedCall/sequential/module_wrapper_1/sep_conv_lst_m2d_1/while/body/_67/input_control_node/_175", "^StatefulPartitionedCall/sequential/module_wrapper_1/sep_conv_lst_m2d_1/while/enter/_76"], "attr": {"dtype": {"type": "DT_FLOAT"}, "value": {"tensor": {"dtype": "DT_FLOAT", "tensorShape": {"dim": [{"size": "3"}, {"size": "3"}, {"size": "32"}, {"size": "1"}]}}}}}, {"name": "ConstantFolding/StatefulPartitionedCall/sequential/module_wrapper_1/sep_conv_lst_m2d_1/while/body/_67/sequential/module_wrapper_1/sep_conv_lst_m2d_1/while/split_2-folded-3", "op": "Const", "input": ["^Func/StatefulPartitionedCall/sequential/module_wrapper_1/sep_conv_lst_m2d_1/while/body/_67/input_control_node/_175", "^StatefulPartitionedCall/sequential/module_wrapper_1/sep_conv_lst_m2d_1/while/enter/_78"], "attr": {"dtype": {"type": "DT_FLOAT"}, "value": {"tensor": {"dtype": "DT_FLOAT", "tensorShape": {"dim": [{"size": "1"}, {"size": "1"}, {"size": "32"}, {"size": "64"}]}}}}}, {"name": "ConstantFolding/StatefulPartitionedCall/sequential/module_wrapper_1/sep_conv_lst_m2d_1/while/body/_67/sequential/module_wrapper_1/sep_conv_lst_m2d_1/while/split_1-folded-3", "op": "Const", "input": ["^Func/StatefulPartitionedCall/sequential/module_wrapper_1/sep_conv_lst_m2d_1/while/body/_67/input_control_node/_175", "^StatefulPartitionedCall/sequential/module_wrapper_1/sep_conv_lst_m2d_1/while/enter/_77"], "attr": {"dtype": {"type": "DT_FLOAT"}, "value": {"tensor": {"dtype": "DT_FLOAT", "tensorShape": {"dim": [{"size": "3"}, {"size": "3"}, {"size": "64"}, {"size": "1"}]}}}}}, {"name": "ConstantFolding/StatefulPartitionedCall/sequential/module_wrapper_1/sep_conv_lst_m2d_1/while/body/_67/sequential/module_wrapper_1/sep_conv_lst_m2d_1/while/split_3-folded-3", "op": "Const", "input": ["^Func/StatefulPartitionedCall/sequential/module_wrapper_1/sep_conv_lst_m2d_1/while/body/_67/input_control_node/_175", "^StatefulPartitionedCall/sequential/module_wrapper_1/sep_conv_lst_m2d_1/while/enter/_79"], "attr": {"dtype": {"type": "DT_FLOAT"}, "value": {"tensor": {"dtype": "DT_FLOAT", "tensorShape": {"dim": [{"size": "1"}, {"size": "1"}, {"size": "64"}, {"size": "64"}]}}}}}, {"name": "StatefulPartitionedCall/sequential/module_wrapper_1/sep_conv_lst_m2d_1/while/body/_67/sequential/module_wrapper_1/sep_conv_lst_m2d_1/while/Const_4", "op": "Const", "input": ["^Func/StatefulPartitionedCall/sequential/module_wrapper_1/sep_conv_lst_m2d_1/while/body/_67/input_control_node/_175"], "attr": {"value": {"tensor": {"dtype": "DT_FLOAT", "tensorShape": {}}}, "dtype": {"type": "DT_FLOAT"}}}, {"name": "StatefulPartitionedCall/sequential/module_wrapper_1/sep_conv_lst_m2d_1/while/body/_67/sequential/module_wrapper_1/sep_conv_lst_m2d_1/while/Const_5", "op": "Const", "input": ["^Func/StatefulPartitionedCall/sequential/module_wrapper_1/sep_conv_lst_m2d_1/while/body/_67/input_control_node/_175"], "attr": {"dtype": {"type": "DT_FLOAT"}, "value": {"tensor": {"dtype": "DT_FLOAT", "tensorShape": {}}}}}, {"name": "StatefulPartitionedCall/sequential/module_wrapper_1/sep_conv_lst_m2d_1/while/body/_67/sequential/module_wrapper_1/sep_conv_lst_m2d_1/while/clip_by_value_2/Minimum/y", "op": "Const", "input": ["^Func/StatefulPartitionedCall/sequential/module_wrapper_1/sep_conv_lst_m2d_1/while/body/_67/input_control_node/_175"], "attr": {"value": {"tensor": {"dtype": "DT_FLOAT", "tensorShape": {}}}, "dtype": {"type": "DT_FLOAT"}}}, {"name": "StatefulPartitionedCall/sequential/module_wrapper_1/sep_conv_lst_m2d_1/while/body/_67/sequential/module_wrapper_1/sep_conv_lst_m2d_1/while/clip_by_value_2/y", "op": "Const", "input": ["^Func/StatefulPartitionedCall/sequential/module_wrapper_1/sep_conv_lst_m2d_1/while/body/_67/input_control_node/_175"], "attr": {"dtype": {"type": "DT_FLOAT"}, "value": {"tensor": {"dtype": "DT_FLOAT", "tensorShape": {}}}}}, {"name": "ConstantFolding/StatefulPartitionedCall/sequential/module_wrapper_1/sep_conv_lst_m2d_1/while/body/_67/sequential/module_wrapper_1/sep_conv_lst_m2d_1/while/split-folded-1", "op": "Const", "input": ["^Func/StatefulPartitionedCall/sequential/module_wrapper_1/sep_conv_lst_m2d_1/while/body/_67/input_control_node/_175", "^StatefulPartitionedCall/sequential/module_wrapper_1/sep_conv_lst_m2d_1/while/enter/_76"], "attr": {"dtype": {"type": "DT_FLOAT"}, "value": {"tensor": {"dtype": "DT_FLOAT", "tensorShape": {"dim": [{"size": "3"}, {"size": "3"}, {"size": "32"}, {"size": "1"}]}}}}}, {"name": "ConstantFolding/StatefulPartitionedCall/sequential/module_wrapper_1/sep_conv_lst_m2d_1/while/body/_67/sequential/module_wrapper_1/sep_conv_lst_m2d_1/while/split_2-folded-1", "op": "Const", "input": ["^Func/StatefulPartitionedCall/sequential/module_wrapper_1/sep_conv_lst_m2d_1/while/body/_67/input_control_node/_175", "^StatefulPartitionedCall/sequential/module_wrapper_1/sep_conv_lst_m2d_1/while/enter/_78"], "attr": {"value": {"tensor": {"dtype": "DT_FLOAT", "tensorShape": {"dim": [{"size": "1"}, {"size": "1"}, {"size": "32"}, {"size": "64"}]}}}, "dtype": {"type": "DT_FLOAT"}}}, {"name": "ConstantFolding/StatefulPartitionedCall/sequential/module_wrapper_1/sep_conv_lst_m2d_1/while/body/_67/sequential/module_wrapper_1/sep_conv_lst_m2d_1/while/split_1-folded-1", "op": "Const", "input": ["^Func/StatefulPartitionedCall/sequential/module_wrapper_1/sep_conv_lst_m2d_1/while/body/_67/input_control_node/_175", "^StatefulPartitionedCall/sequential/module_wrapper_1/sep_conv_lst_m2d_1/while/enter/_77"], "attr": {"value": {"tensor": {"dtype": "DT_FLOAT", "tensorShape": {"dim": [{"size": "3"}, {"size": "3"}, {"size": "64"}, {"size": "1"}]}}}, "dtype": {"type": "DT_FLOAT"}}}, {"name": "ConstantFolding/StatefulPartitionedCall/sequential/module_wrapper_1/sep_conv_lst_m2d_1/while/body/_67/sequential/module_wrapper_1/sep_conv_lst_m2d_1/while/split_3-folded-1", "op": "Const", "input": ["^Func/StatefulPartitionedCall/sequential/module_wrapper_1/sep_conv_lst_m2d_1/while/body/_67/input_control_node/_175", "^StatefulPartitionedCall/sequential/module_wrapper_1/sep_conv_lst_m2d_1/while/enter/_79"], "attr": {"dtype": {"type": "DT_FLOAT"}, "value": {"tensor": {"dtype": "DT_FLOAT", "tensorShape": {"dim": [{"size": "1"}, {"size": "1"}, {"size": "64"}, {"size": "64"}]}}}}}, {"name": "StatefulPartitionedCall/sequential/module_wrapper_1/sep_conv_lst_m2d_1/while/body/_67/sequential/module_wrapper_1/sep_conv_lst_m2d_1/while/Const_2", "op": "Const", "input": ["^Func/StatefulPartitionedCall/sequential/module_wrapper_1/sep_conv_lst_m2d_1/while/body/_67/input_control_node/_175"], "attr": {"dtype": {"type": "DT_FLOAT"}, "value": {"tensor": {"dtype": "DT_FLOAT", "tensorShape": {}}}}}, {"name": "StatefulPartitionedCall/sequential/module_wrapper_1/sep_conv_lst_m2d_1/while/body/_67/sequential/module_wrapper_1/sep_conv_lst_m2d_1/while/Const_3", "op": "Const", "input": ["^Func/StatefulPartitionedCall/sequential/module_wrapper_1/sep_conv_lst_m2d_1/while/body/_67/input_control_node/_175"], "attr": {"value": {"tensor": {"dtype": "DT_FLOAT", "tensorShape": {}}}, "dtype": {"type": "DT_FLOAT"}}}, {"name": "StatefulPartitionedCall/sequential/module_wrapper_1/sep_conv_lst_m2d_1/while/body/_67/sequential/module_wrapper_1/sep_conv_lst_m2d_1/while/clip_by_value_1/Minimum/y", "op": "Const", "input": ["^Func/StatefulPartitionedCall/sequential/module_wrapper_1/sep_conv_lst_m2d_1/while/body/_67/input_control_node/_175"], "attr": {"value": {"tensor": {"dtype": "DT_FLOAT", "tensorShape": {}}}, "dtype": {"type": "DT_FLOAT"}}}, {"name": "StatefulPartitionedCall/sequential/module_wrapper_1/sep_conv_lst_m2d_1/while/body/_67/sequential/module_wrapper_1/sep_conv_lst_m2d_1/while/clip_by_value_1/y", "op": "Const", "input": ["^Func/StatefulPartitionedCall/sequential/module_wrapper_1/sep_conv_lst_m2d_1/while/body/_67/input_control_node/_175"], "attr": {"dtype": {"type": "DT_FLOAT"}, "value": {"tensor": {"dtype": "DT_FLOAT", "tensorShape": {}}}}}, {"name": "ConstantFolding/StatefulPartitionedCall/sequential/module_wrapper_1/sep_conv_lst_m2d_1/while/body/_67/sequential/module_wrapper_1/sep_conv_lst_m2d_1/while/split-folded-0", "op": "Const", "input": ["^Func/StatefulPartitionedCall/sequential/module_wrapper_1/sep_conv_lst_m2d_1/while/body/_67/input_control_node/_175", "^StatefulPartitionedCall/sequential/module_wrapper_1/sep_conv_lst_m2d_1/while/enter/_76"], "attr": {"dtype": {"type": "DT_FLOAT"}, "value": {"tensor": {"dtype": "DT_FLOAT", "tensorShape": {"dim": [{"size": "3"}, {"size": "3"}, {"size": "32"}, {"size": "1"}]}}}}}, {"name": "ConstantFolding/StatefulPartitionedCall/sequential/module_wrapper_1/sep_conv_lst_m2d_1/while/body/_67/sequential/module_wrapper_1/sep_conv_lst_m2d_1/while/split_2-folded-0", "op": "Const", "input": ["^Func/StatefulPartitionedCall/sequential/module_wrapper_1/sep_conv_lst_m2d_1/while/body/_67/input_control_node/_175", "^StatefulPartitionedCall/sequential/module_wrapper_1/sep_conv_lst_m2d_1/while/enter/_78"], "attr": {"value": {"tensor": {"dtype": "DT_FLOAT", "tensorShape": {"dim": [{"size": "1"}, {"size": "1"}, {"size": "32"}, {"size": "64"}]}}}, "dtype": {"type": "DT_FLOAT"}}}, {"name": "ConstantFolding/StatefulPartitionedCall/sequential/module_wrapper_1/sep_conv_lst_m2d_1/while/body/_67/sequential/module_wrapper_1/sep_conv_lst_m2d_1/while/split_1-folded-0", "op": "Const", "input": ["^Func/StatefulPartitionedCall/sequential/module_wrapper_1/sep_conv_lst_m2d_1/while/body/_67/input_control_node/_175", "^StatefulPartitionedCall/sequential/module_wrapper_1/sep_conv_lst_m2d_1/while/enter/_77"], "attr": {"dtype": {"type": "DT_FLOAT"}, "value": {"tensor": {"dtype": "DT_FLOAT", "tensorShape": {"dim": [{"size": "3"}, {"size": "3"}, {"size": "64"}, {"size": "1"}]}}}}}, {"name": "ConstantFolding/StatefulPartitionedCall/sequential/module_wrapper_1/sep_conv_lst_m2d_1/while/body/_67/sequential/module_wrapper_1/sep_conv_lst_m2d_1/while/split_3-folded-0", "op": "Const", "input": ["^Func/StatefulPartitionedCall/sequential/module_wrapper_1/sep_conv_lst_m2d_1/while/body/_67/input_control_node/_175", "^StatefulPartitionedCall/sequential/module_wrapper_1/sep_conv_lst_m2d_1/while/enter/_79"], "attr": {"dtype": {"type": "DT_FLOAT"}, "value": {"tensor": {"dtype": "DT_FLOAT", "tensorShape": {"dim": [{"size": "1"}, {"size": "1"}, {"size": "64"}, {"size": "64"}]}}}}}, {"name": "StatefulPartitionedCall/sequential/module_wrapper_1/sep_conv_lst_m2d_1/while/body/_67/sequential/module_wrapper_1/sep_conv_lst_m2d_1/while/Const", "op": "Const", "input": ["^Func/StatefulPartitionedCall/sequential/module_wrapper_1/sep_conv_lst_m2d_1/while/body/_67/input_control_node/_175"], "attr": {"value": {"tensor": {"dtype": "DT_FLOAT", "tensorShape": {}}}, "dtype": {"type": "DT_FLOAT"}}}, {"name": "StatefulPartitionedCall/sequential/module_wrapper_1/sep_conv_lst_m2d_1/while/body/_67/sequential/module_wrapper_1/sep_conv_lst_m2d_1/while/Const_1", "op": "Const", "input": ["^Func/StatefulPartitionedCall/sequential/module_wrapper_1/sep_conv_lst_m2d_1/while/body/_67/input_control_node/_175"], "attr": {"dtype": {"type": "DT_FLOAT"}, "value": {"tensor": {"dtype": "DT_FLOAT", "tensorShape": {}}}}}, {"name": "StatefulPartitionedCall/sequential/module_wrapper_1/sep_conv_lst_m2d_1/while/body/_67/sequential/module_wrapper_1/sep_conv_lst_m2d_1/while/clip_by_value/Minimum/y", "op": "Const", "input": ["^Func/StatefulPartitionedCall/sequential/module_wrapper_1/sep_conv_lst_m2d_1/while/body/_67/input_control_node/_175"], "attr": {"value": {"tensor": {"dtype": "DT_FLOAT", "tensorShape": {}}}, "dtype": {"type": "DT_FLOAT"}}}, {"name": "StatefulPartitionedCall/sequential/module_wrapper_1/sep_conv_lst_m2d_1/while/body/_67/sequential/module_wrapper_1/sep_conv_lst_m2d_1/while/clip_by_value/y", "op": "Const", "input": ["^Func/StatefulPartitionedCall/sequential/module_wrapper_1/sep_conv_lst_m2d_1/while/body/_67/input_control_node/_175"], "attr": {"value": {"tensor": {"dtype": "DT_FLOAT", "tensorShape": {}}}, "dtype": {"type": "DT_FLOAT"}}}, {"name": "StatefulPartitionedCall/sequential/module_wrapper_1/sep_conv_lst_m2d_1/while/body/_67/sequential/module_wrapper_1/sep_conv_lst_m2d_1/while/TensorArrayV2Read/TensorListGetItem/element_shape", "op": "Const", "input": ["^Func/StatefulPartitionedCall/sequential/module_wrapper_1/sep_conv_lst_m2d_1/while/body/_67/input_control_node/_175"], "attr": {"value": {"tensor": {"dtype": "DT_INT32", "tensorShape": {"dim": [{"size": "4"}]}}}, "dtype": {"type": "DT_INT32"}}}, {"name": "ConstantFolding/StatefulPartitionedCall/sequential/module_wrapper_1/sep_conv_lst_m2d_1/while/body/_67/sequential/module_wrapper_1/sep_conv_lst_m2d_1/while/split-folded-2", "op": "Const", "input": ["^Func/StatefulPartitionedCall/sequential/module_wrapper_1/sep_conv_lst_m2d_1/while/body/_67/input_control_node/_175", "^StatefulPartitionedCall/sequential/module_wrapper_1/sep_conv_lst_m2d_1/while/enter/_76"], "attr": {"value": {"tensor": {"dtype": "DT_FLOAT", "tensorShape": {"dim": [{"size": "3"}, {"size": "3"}, {"size": "32"}, {"size": "1"}]}}}, "dtype": {"type": "DT_FLOAT"}}}, {"name": "ConstantFolding/StatefulPartitionedCall/sequential/module_wrapper_1/sep_conv_lst_m2d_1/while/body/_67/sequential/module_wrapper_1/sep_conv_lst_m2d_1/while/split_2-folded-2", "op": "Const", "input": ["^Func/StatefulPartitionedCall/sequential/module_wrapper_1/sep_conv_lst_m2d_1/while/body/_67/input_control_node/_175", "^StatefulPartitionedCall/sequential/module_wrapper_1/sep_conv_lst_m2d_1/while/enter/_78"], "attr": {"dtype": {"type": "DT_FLOAT"}, "value": {"tensor": {"dtype": "DT_FLOAT", "tensorShape": {"dim": [{"size": "1"}, {"size": "1"}, {"size": "32"}, {"size": "64"}]}}}}}, {"name": "Func/StatefulPartitionedCall/sequential/module_wrapper_1/sep_conv_lst_m2d_1/while/body/_67/input/_180", "op": "Identity", "input": ["StatefulPartitionedCall/sequential/module_wrapper_1/sep_conv_lst_m2d_1/while/StatefulPartitionedCall/sequential/module_wrapper_1/sep_conv_lst_m2d_1/separable_conv2d_switch/_95:1", "^Func/StatefulPartitionedCall/sequential/module_wrapper_1/sep_conv_lst_m2d_1/while/body/_67/input_control_node/_175"], "attr": {"T": {"type": "DT_FLOAT"}}}, {"name": "ConstantFolding/StatefulPartitionedCall/sequential/module_wrapper_1/sep_conv_lst_m2d_1/while/body/_67/sequential/module_wrapper_1/sep_conv_lst_m2d_1/while/split_1-folded-2", "op": "Const", "input": ["^Func/StatefulPartitionedCall/sequential/module_wrapper_1/sep_conv_lst_m2d_1/while/body/_67/input_control_node/_175", "^StatefulPartitionedCall/sequential/module_wrapper_1/sep_conv_lst_m2d_1/while/enter/_77"], "attr": {"dtype": {"type": "DT_FLOAT"}, "value": {"tensor": {"dtype": "DT_FLOAT", "tensorShape": {"dim": [{"size": "3"}, {"size": "3"}, {"size": "64"}, {"size": "1"}]}}}}}, {"name": "ConstantFolding/StatefulPartitionedCall/sequential/module_wrapper_1/sep_conv_lst_m2d_1/while/body/_67/sequential/module_wrapper_1/sep_conv_lst_m2d_1/while/split_3-folded-2", "op": "Const", "input": ["^Func/StatefulPartitionedCall/sequential/module_wrapper_1/sep_conv_lst_m2d_1/while/body/_67/input_control_node/_175", "^StatefulPartitionedCall/sequential/module_wrapper_1/sep_conv_lst_m2d_1/while/enter/_79"], "attr": {"value": {"tensor": {"dtype": "DT_FLOAT", "tensorShape": {"dim": [{"size": "1"}, {"size": "1"}, {"size": "64"}, {"size": "64"}]}}}, "dtype": {"type": "DT_FLOAT"}}}, {"name": "Func/StatefulPartitionedCall/sequential/module_wrapper_1/sep_conv_lst_m2d_1/while/body/_67/input/_178", "op": "Identity", "input": ["StatefulPartitionedCall/sequential/module_wrapper_1/sep_conv_lst_m2d_1/while/StatefulPartitionedCall/sequential/module_wrapper_1/sep_conv_lst_m2d_1/time_switch/_93:1", "^Func/StatefulPartitionedCall/sequential/module_wrapper_1/sep_conv_lst_m2d_1/while/body/_67/input_control_node/_175"], "attr": {"T": {"type": "DT_INT32"}}}, {"name": "StatefulPartitionedCall/sequential/module_wrapper_1/sep_conv_lst_m2d_1/while/body/_67/sequential/module_wrapper_1/sep_conv_lst_m2d_1/while/add_8/y", "op": "Const", "input": ["^Func/StatefulPartitionedCall/sequential/module_wrapper_1/sep_conv_lst_m2d_1/while/body/_67/input_control_node/_175"], "attr": {"dtype": {"type": "DT_INT32"}, "value": {"tensor": {"dtype": "DT_INT32", "tensorShape": {}}}}}, {"name": "StatefulPartitionedCall/sequential/module_wrapper_1/sep_conv_lst_m2d_1/while/body/_67/sequential/module_wrapper_1/sep_conv_lst_m2d_1/while/add_9/y", "op": "Const", "input": ["^Func/StatefulPartitionedCall/sequential/module_wrapper_1/sep_conv_lst_m2d_1/while/body/_67/input_control_node/_175"], "attr": {"value": {"tensor": {"dtype": "DT_INT32", "tensorShape": {}}}, "dtype": {"type": "DT_INT32"}}}, {"name": "ConstantFolding/StatefulPartitionedCall/sequential/module_wrapper_1/sep_conv_lst_m2d_1/while/body/_67/sequential/module_wrapper_1/sep_conv_lst_m2d_1/while/split_4-folded-3", "op": "Const", "input": ["^Func/StatefulPartitionedCall/sequential/module_wrapper_1/sep_conv_lst_m2d_1/while/body/_67/input_control_node/_175", "^StatefulPartitionedCall/sequential/module_wrapper_1/sep_conv_lst_m2d_1/while/enter/_80"], "attr": {"value": {"tensor": {"dtype": "DT_FLOAT", "tensorShape": {"dim": [{"size": "64"}]}}}, "dtype": {"type": "DT_FLOAT"}}}, {"name": "ConstantFolding/StatefulPartitionedCall/sequential/module_wrapper_1/sep_conv_lst_m2d_1/while/body/_67/sequential/module_wrapper_1/sep_conv_lst_m2d_1/while/split_4-folded-1", "op": "Const", "input": ["^Func/StatefulPartitionedCall/sequential/module_wrapper_1/sep_conv_lst_m2d_1/while/body/_67/input_control_node/_175", "^StatefulPartitionedCall/sequential/module_wrapper_1/sep_conv_lst_m2d_1/while/enter/_80"], "attr": {"dtype": {"type": "DT_FLOAT"}, "value": {"tensor": {"dtype": "DT_FLOAT", "tensorShape": {"dim": [{"size": "64"}]}}}}}, {"name": "ConstantFolding/StatefulPartitionedCall/sequential/module_wrapper_1/sep_conv_lst_m2d_1/while/body/_67/sequential/module_wrapper_1/sep_conv_lst_m2d_1/while/split_4-folded-0", "op": "Const", "input": ["^Func/StatefulPartitionedCall/sequential/module_wrapper_1/sep_conv_lst_m2d_1/while/body/_67/input_control_node/_175", "^StatefulPartitionedCall/sequential/module_wrapper_1/sep_conv_lst_m2d_1/while/enter/_80"], "attr": {"dtype": {"type": "DT_FLOAT"}, "value": {"tensor": {"dtype": "DT_FLOAT", "tensorShape": {"dim": [{"size": "64"}]}}}}}, {"name": "ConstantFolding/StatefulPartitionedCall/sequential/module_wrapper_1/sep_conv_lst_m2d_1/while/body/_67/sequential/module_wrapper_1/sep_conv_lst_m2d_1/while/split_4-folded-2", "op": "Const", "input": ["^Func/StatefulPartitionedCall/sequential/module_wrapper_1/sep_conv_lst_m2d_1/while/body/_67/input_control_node/_175", "^StatefulPartitionedCall/sequential/module_wrapper_1/sep_conv_lst_m2d_1/while/enter/_80"], "attr": {"dtype": {"type": "DT_FLOAT"}, "value": {"tensor": {"dtype": "DT_FLOAT", "tensorShape": {"dim": [{"size": "64"}]}}}}}, {"name": "Func/StatefulPartitionedCall/sequential/module_wrapper_1/sep_conv_lst_m2d_1/while/body/_67/output_control_node/_202", "op": "NoOp", "input": ["^StatefulPartitionedCall/sequential/module_wrapper_1/sep_conv_lst_m2d_1/while/enter/_76", "^StatefulPartitionedCall/sequential/module_wrapper_1/sep_conv_lst_m2d_1/while/enter/_77", "^StatefulPartitionedCall/sequential/module_wrapper_1/sep_conv_lst_m2d_1/while/enter/_78", "^StatefulPartitionedCall/sequential/module_wrapper_1/sep_conv_lst_m2d_1/while/enter/_79", "^Func/StatefulPartitionedCall/sequential/module_wrapper_1/sep_conv_lst_m2d_1/while/body/_67/input_control_node/_175", "^StatefulPartitionedCall/sequential/module_wrapper_1/sep_conv_lst_m2d_1/while/enter/_80"], "attr": {"_has_manual_control_dependencies": {"b": true}}}, {"name": "StatefulPartitionedCall/sequential/module_wrapper_1/sep_conv_lst_m2d_1/while/body/_67/sequential/module_wrapper_1/sep_conv_lst_m2d_1/while/NoOp", "op": "NoOp", "input": ["^StatefulPartitionedCall/sequential/module_wrapper_1/sep_conv_lst_m2d_1/while/enter/_76", "^StatefulPartitionedCall/sequential/module_wrapper_1/sep_conv_lst_m2d_1/while/enter/_77", "^StatefulPartitionedCall/sequential/module_wrapper_1/sep_conv_lst_m2d_1/while/enter/_78", "^StatefulPartitionedCall/sequential/module_wrapper_1/sep_conv_lst_m2d_1/while/enter/_79", "^Func/StatefulPartitionedCall/sequential/module_wrapper_1/sep_conv_lst_m2d_1/while/body/_67/input_control_node/_175", "^StatefulPartitionedCall/sequential/module_wrapper_1/sep_conv_lst_m2d_1/while/enter/_80"], "attr": {"_has_manual_control_dependencies": {"b": true}}}, {"name": "StatefulPartitionedCall/sequential/max_pooling3d_1/MaxPool3D", "op": "MaxPool3D", "input": ["StatefulPartitionedCall/sequential/module_wrapper_1/sep_conv_lst_m2d_1/transpose_1"], "attr": {"ksize": {"list": {"i": ["1", "1", "2", "2", "1"]}}, "T": {"type": "DT_FLOAT"}, "strides": {"list": {"i": ["1", "1", "2", "2", "1"]}}, "data_format": {"s": "TkRIV0M="}, "padding": {"s": "U0FNRQ=="}}}, {"name": "StatefulPartitionedCall/sequential/module_wrapper_1/sep_conv_lst_m2d_1/while/body/_67/sequential/module_wrapper_1/sep_conv_lst_m2d_1/while/separable_conv2d_7/depthwise", "op": "DepthwiseConv2dNative", "input": ["Func/StatefulPartitionedCall/sequential/module_wrapper_1/sep_conv_lst_m2d_1/while/body/_67/input/_180", "ConstantFolding/StatefulPartitionedCall/sequential/module_wrapper_1/sep_conv_lst_m2d_1/while/body/_67/sequential/module_wrapper_1/sep_conv_lst_m2d_1/while/split_1-folded-3"], "attr": {"explicit_paddings": {"list": {}}, "dilations": {"list": {"i": ["1", "1", "1", "1"]}}, "padding": {"s": "U0FNRQ=="}, "data_format": {"s": "TkhXQw=="}, "strides": {"list": {"i": ["1", "1", "1", "1"]}}, "T": {"type": "DT_FLOAT"}}}, {"name": "StatefulPartitionedCall/sequential/module_wrapper_1/sep_conv_lst_m2d_1/while/body/_67/sequential/module_wrapper_1/sep_conv_lst_m2d_1/while/separable_conv2d_5/depthwise", "op": "DepthwiseConv2dNative", "input": ["Func/StatefulPartitionedCall/sequential/module_wrapper_1/sep_conv_lst_m2d_1/while/body/_67/input/_180", "ConstantFolding/StatefulPartitionedCall/sequential/module_wrapper_1/sep_conv_lst_m2d_1/while/body/_67/sequential/module_wrapper_1/sep_conv_lst_m2d_1/while/split_1-folded-1"], "attr": {"T": {"type": "DT_FLOAT"}, "strides": {"list": {"i": ["1", "1", "1", "1"]}}, "dilations": {"list": {"i": ["1", "1", "1", "1"]}}, "padding": {"s": "U0FNRQ=="}, "explicit_paddings": {"list": {}}, "data_format": {"s": "TkhXQw=="}}}, {"name": "StatefulPartitionedCall/sequential/module_wrapper_1/sep_conv_lst_m2d_1/while/body/_67/sequential/module_wrapper_1/sep_conv_lst_m2d_1/while/separable_conv2d_4/depthwise", "op": "DepthwiseConv2dNative", "input": ["Func/StatefulPartitionedCall/sequential/module_wrapper_1/sep_conv_lst_m2d_1/while/body/_67/input/_180", "ConstantFolding/StatefulPartitionedCall/sequential/module_wrapper_1/sep_conv_lst_m2d_1/while/body/_67/sequential/module_wrapper_1/sep_conv_lst_m2d_1/while/split_1-folded-0"], "attr": {"data_format": {"s": "TkhXQw=="}, "strides": {"list": {"i": ["1", "1", "1", "1"]}}, "padding": {"s": "U0FNRQ=="}, "dilations": {"list": {"i": ["1", "1", "1", "1"]}}, "explicit_paddings": {"list": {}}, "T": {"type": "DT_FLOAT"}}}, {"name": "StatefulPartitionedCall/sequential/module_wrapper_1/sep_conv_lst_m2d_1/while/body/_67/sequential/module_wrapper_1/sep_conv_lst_m2d_1/while/separable_conv2d_6/depthwise", "op": "DepthwiseConv2dNative", "input": ["Func/StatefulPartitionedCall/sequential/module_wrapper_1/sep_conv_lst_m2d_1/while/body/_67/input/_180", "ConstantFolding/StatefulPartitionedCall/sequential/module_wrapper_1/sep_conv_lst_m2d_1/while/body/_67/sequential/module_wrapper_1/sep_conv_lst_m2d_1/while/split_1-folded-2"], "attr": {"strides": {"list": {"i": ["1", "1", "1", "1"]}}, "dilations": {"list": {"i": ["1", "1", "1", "1"]}}, "T": {"type": "DT_FLOAT"}, "padding": {"s": "U0FNRQ=="}, "data_format": {"s": "TkhXQw=="}, "explicit_paddings": {"list": {}}}}, {"name": "StatefulPartitionedCall/sequential/module_wrapper_1/sep_conv_lst_m2d_1/while/body/_67/sequential/module_wrapper_1/sep_conv_lst_m2d_1/while/TensorArrayV2Read/TensorListGetItem", "op": "TensorListGetItem", "input": ["StatefulPartitionedCall/sequential/module_wrapper_1/sep_conv_lst_m2d_1/while/StatefulPartitionedCall/sequential/module_wrapper_1/sep_conv_lst_m2d_1/TensorArrayUnstack/TensorListFromTensor_switch/_98:1", "Func/StatefulPartitionedCall/sequential/module_wrapper_1/sep_conv_lst_m2d_1/while/body/_67/input/_178", "StatefulPartitionedCall/sequential/module_wrapper_1/sep_conv_lst_m2d_1/while/body/_67/sequential/module_wrapper_1/sep_conv_lst_m2d_1/while/TensorArrayV2Read/TensorListGetItem/element_shape"], "attr": {"element_dtype": {"type": "DT_FLOAT"}}}, {"name": "StatefulPartitionedCall/sequential/module_wrapper_1/sep_conv_lst_m2d_1/while/body/_67/sequential/module_wrapper_1/sep_conv_lst_m2d_1/while/add_8", "op": "AddV2", "input": ["Func/StatefulPartitionedCall/sequential/module_wrapper_1/sep_conv_lst_m2d_1/while/body/_67/input/_178", "StatefulPartitionedCall/sequential/module_wrapper_1/sep_conv_lst_m2d_1/while/body/_67/sequential/module_wrapper_1/sep_conv_lst_m2d_1/while/add_8/y"], "attr": {"T": {"type": "DT_INT32"}}}, {"name": "StatefulPartitionedCall/sequential/module_wrapper_1/sep_conv_lst_m2d_1/while/body/_67/sequential/module_wrapper_1/sep_conv_lst_m2d_1/while/add_9", "op": "AddV2", "input": ["StatefulPartitionedCall/sequential/module_wrapper_1/sep_conv_lst_m2d_1/while/StatefulPartitionedCall/sequential/module_wrapper_1/sep_conv_lst_m2d_1/while/loop_counter_switch/_91:1", "StatefulPartitionedCall/sequential/module_wrapper_1/sep_conv_lst_m2d_1/while/body/_67/sequential/module_wrapper_1/sep_conv_lst_m2d_1/while/add_9/y"], "attr": {"T": {"type": "DT_INT32"}}}, {"name": "StatefulPartitionedCall/sequential/module_wrapper_1/sep_conv_lst_m2d_1/while/next_iteration/_116", "op": "NextIteration", "input": ["StatefulPartitionedCall/sequential/module_wrapper_1/sep_conv_lst_m2d_1/while/StatefulPartitionedCall/sequential/module_wrapper_1/sep_conv_lst_m2d_1/TensorArrayUnstack/TensorListFromTensor_switch/_98:1", "^Func/StatefulPartitionedCall/sequential/module_wrapper_1/sep_conv_lst_m2d_1/while/body/_67/output_control_node/_202", "^Func/StatefulPartitionedCall/sequential/module_wrapper_1/sep_conv_lst_m2d_1/while/body/_67/input_control_node/_175"], "attr": {"T": {"type": "DT_VARIANT"}}}, {"name": "StatefulPartitionedCall/sequential/module_wrapper_1/sep_conv_lst_m2d_1/while/next_iteration/_115", "op": "NextIteration", "input": ["StatefulPartitionedCall/sequential/module_wrapper_1/sep_conv_lst_m2d_1/while/StatefulPartitionedCall/sequential/module_wrapper_1/sep_conv_lst_m2d_1/strided_slice_switch/_97:1", "^Func/StatefulPartitionedCall/sequential/module_wrapper_1/sep_conv_lst_m2d_1/while/body/_67/output_control_node/_202", "^Func/StatefulPartitionedCall/sequential/module_wrapper_1/sep_conv_lst_m2d_1/while/body/_67/input_control_node/_175"], "attr": {"T": {"type": "DT_INT32"}}}, {"name": "StatefulPartitionedCall/sequential/module_wrapper_1/sep_conv_lst_m2d_1/while/next_iteration/_110", "op": "NextIteration", "input": ["StatefulPartitionedCall/sequential/module_wrapper_1/sep_conv_lst_m2d_1/while/StatefulPartitionedCall/sequential/module_wrapper_1/sep_conv_lst_m2d_1/while/maximum_iterations_switch/_92:1", "^Func/StatefulPartitionedCall/sequential/module_wrapper_1/sep_conv_lst_m2d_1/while/body/_67/output_control_node/_202", "^StatefulPartitionedCall/sequential/module_wrapper_1/sep_conv_lst_m2d_1/while/body/_67/sequential/module_wrapper_1/sep_conv_lst_m2d_1/while/NoOp", "^Func/StatefulPartitionedCall/sequential/module_wrapper_1/sep_conv_lst_m2d_1/while/body/_67/input_control_node/_175"], "attr": {"T": {"type": "DT_INT32"}}}, {"name": "StatefulPartitionedCall/sequential/flatten/Reshape", "op": "Reshape", "input": ["StatefulPartitionedCall/sequential/max_pooling3d_1/MaxPool3D", "StatefulPartitionedCall/sequential/flatten/Const"], "attr": {"Tshape": {"type": "DT_INT32"}, "T": {"type": "DT_FLOAT"}}}, {"name": "StatefulPartitionedCall/sequential/module_wrapper_1/sep_conv_lst_m2d_1/while/body/_67/sequential/module_wrapper_1/sep_conv_lst_m2d_1/while/separable_conv2d_7", "op": "Conv2D", "input": ["StatefulPartitionedCall/sequential/module_wrapper_1/sep_conv_lst_m2d_1/while/body/_67/sequential/module_wrapper_1/sep_conv_lst_m2d_1/while/separable_conv2d_7/depthwise", "ConstantFolding/StatefulPartitionedCall/sequential/module_wrapper_1/sep_conv_lst_m2d_1/while/body/_67/sequential/module_wrapper_1/sep_conv_lst_m2d_1/while/split_3-folded-3"], "device": "/device:CPU:0", "attr": {"dilations": {"list": {"i": ["1", "1", "1", "1"]}}, "data_format": {"s": "TkhXQw=="}, "explicit_paddings": {"list": {}}, "padding": {"s": "VkFMSUQ="}, "T": {"type": "DT_FLOAT"}, "use_cudnn_on_gpu": {"b": true}, "strides": {"list": {"i": ["1", "1", "1", "1"]}}}}, {"name": "StatefulPartitionedCall/sequential/module_wrapper_1/sep_conv_lst_m2d_1/while/body/_67/sequential/module_wrapper_1/sep_conv_lst_m2d_1/while/separable_conv2d_5", "op": "Conv2D", "input": ["StatefulPartitionedCall/sequential/module_wrapper_1/sep_conv_lst_m2d_1/while/body/_67/sequential/module_wrapper_1/sep_conv_lst_m2d_1/while/separable_conv2d_5/depthwise", "ConstantFolding/StatefulPartitionedCall/sequential/module_wrapper_1/sep_conv_lst_m2d_1/while/body/_67/sequential/module_wrapper_1/sep_conv_lst_m2d_1/while/split_3-folded-1"], "device": "/device:CPU:0", "attr": {"T": {"type": "DT_FLOAT"}, "explicit_paddings": {"list": {}}, "use_cudnn_on_gpu": {"b": true}, "padding": {"s": "VkFMSUQ="}, "data_format": {"s": "TkhXQw=="}, "dilations": {"list": {"i": ["1", "1", "1", "1"]}}, "strides": {"list": {"i": ["1", "1", "1", "1"]}}}}, {"name": "StatefulPartitionedCall/sequential/module_wrapper_1/sep_conv_lst_m2d_1/while/body/_67/sequential/module_wrapper_1/sep_conv_lst_m2d_1/while/separable_conv2d_4", "op": "Conv2D", "input": ["StatefulPartitionedCall/sequential/module_wrapper_1/sep_conv_lst_m2d_1/while/body/_67/sequential/module_wrapper_1/sep_conv_lst_m2d_1/while/separable_conv2d_4/depthwise", "ConstantFolding/StatefulPartitionedCall/sequential/module_wrapper_1/sep_conv_lst_m2d_1/while/body/_67/sequential/module_wrapper_1/sep_conv_lst_m2d_1/while/split_3-folded-0"], "device": "/device:CPU:0", "attr": {"T": {"type": "DT_FLOAT"}, "padding": {"s": "VkFMSUQ="}, "dilations": {"list": {"i": ["1", "1", "1", "1"]}}, "strides": {"list": {"i": ["1", "1", "1", "1"]}}, "use_cudnn_on_gpu": {"b": true}, "explicit_paddings": {"list": {}}, "data_format": {"s": "TkhXQw=="}}}, {"name": "StatefulPartitionedCall/sequential/module_wrapper_1/sep_conv_lst_m2d_1/while/body/_67/sequential/module_wrapper_1/sep_conv_lst_m2d_1/while/separable_conv2d_6", "op": "Conv2D", "input": ["StatefulPartitionedCall/sequential/module_wrapper_1/sep_conv_lst_m2d_1/while/body/_67/sequential/module_wrapper_1/sep_conv_lst_m2d_1/while/separable_conv2d_6/depthwise", "ConstantFolding/StatefulPartitionedCall/sequential/module_wrapper_1/sep_conv_lst_m2d_1/while/body/_67/sequential/module_wrapper_1/sep_conv_lst_m2d_1/while/split_3-folded-2"], "device": "/device:CPU:0", "attr": {"dilations": {"list": {"i": ["1", "1", "1", "1"]}}, "strides": {"list": {"i": ["1", "1", "1", "1"]}}, "T": {"type": "DT_FLOAT"}, "use_cudnn_on_gpu": {"b": true}, "padding": {"s": "VkFMSUQ="}, "explicit_paddings": {"list": {}}, "data_format": {"s": "TkhXQw=="}}}, {"name": "StatefulPartitionedCall/sequential/module_wrapper_1/sep_conv_lst_m2d_1/while/body/_67/sequential/module_wrapper_1/sep_conv_lst_m2d_1/while/separable_conv2d_3/depthwise", "op": "DepthwiseConv2dNative", "input": ["StatefulPartitionedCall/sequential/module_wrapper_1/sep_conv_lst_m2d_1/while/body/_67/sequential/module_wrapper_1/sep_conv_lst_m2d_1/while/TensorArrayV2Read/TensorListGetItem", "ConstantFolding/StatefulPartitionedCall/sequential/module_wrapper_1/sep_conv_lst_m2d_1/while/body/_67/sequential/module_wrapper_1/sep_conv_lst_m2d_1/while/split-folded-3"], "attr": {"T": {"type": "DT_FLOAT"}, "data_format": {"s": "TkhXQw=="}, "padding": {"s": "U0FNRQ=="}, "strides": {"list": {"i": ["1", "1", "1", "1"]}}, "dilations": {"list": {"i": ["1", "1", "1", "1"]}}, "explicit_paddings": {"list": {}}}}, {"name": "StatefulPartitionedCall/sequential/module_wrapper_1/sep_conv_lst_m2d_1/while/body/_67/sequential/module_wrapper_1/sep_conv_lst_m2d_1/while/separable_conv2d_1/depthwise", "op": "DepthwiseConv2dNative", "input": ["StatefulPartitionedCall/sequential/module_wrapper_1/sep_conv_lst_m2d_1/while/body/_67/sequential/module_wrapper_1/sep_conv_lst_m2d_1/while/TensorArrayV2Read/TensorListGetItem", "ConstantFolding/StatefulPartitionedCall/sequential/module_wrapper_1/sep_conv_lst_m2d_1/while/body/_67/sequential/module_wrapper_1/sep_conv_lst_m2d_1/while/split-folded-1"], "attr": {"strides": {"list": {"i": ["1", "1", "1", "1"]}}, "explicit_paddings": {"list": {}}, "padding": {"s": "U0FNRQ=="}, "data_format": {"s": "TkhXQw=="}, "dilations": {"list": {"i": ["1", "1", "1", "1"]}}, "T": {"type": "DT_FLOAT"}}}, {"name": "StatefulPartitionedCall/sequential/module_wrapper_1/sep_conv_lst_m2d_1/while/body/_67/sequential/module_wrapper_1/sep_conv_lst_m2d_1/while/separable_conv2d/depthwise", "op": "DepthwiseConv2dNative", "input": ["StatefulPartitionedCall/sequential/module_wrapper_1/sep_conv_lst_m2d_1/while/body/_67/sequential/module_wrapper_1/sep_conv_lst_m2d_1/while/TensorArrayV2Read/TensorListGetItem", "ConstantFolding/StatefulPartitionedCall/sequential/module_wrapper_1/sep_conv_lst_m2d_1/while/body/_67/sequential/module_wrapper_1/sep_conv_lst_m2d_1/while/split-folded-0"], "attr": {"padding": {"s": "U0FNRQ=="}, "data_format": {"s": "TkhXQw=="}, "strides": {"list": {"i": ["1", "1", "1", "1"]}}, "dilations": {"list": {"i": ["1", "1", "1", "1"]}}, "T": {"type": "DT_FLOAT"}, "explicit_paddings": {"list": {}}}}, {"name": "StatefulPartitionedCall/sequential/module_wrapper_1/sep_conv_lst_m2d_1/while/body/_67/sequential/module_wrapper_1/sep_conv_lst_m2d_1/while/separable_conv2d_2/depthwise", "op": "DepthwiseConv2dNative", "input": ["StatefulPartitionedCall/sequential/module_wrapper_1/sep_conv_lst_m2d_1/while/body/_67/sequential/module_wrapper_1/sep_conv_lst_m2d_1/while/TensorArrayV2Read/TensorListGetItem", "ConstantFolding/StatefulPartitionedCall/sequential/module_wrapper_1/sep_conv_lst_m2d_1/while/body/_67/sequential/module_wrapper_1/sep_conv_lst_m2d_1/while/split-folded-2"], "attr": {"strides": {"list": {"i": ["1", "1", "1", "1"]}}, "padding": {"s": "U0FNRQ=="}, "data_format": {"s": "TkhXQw=="}, "dilations": {"list": {"i": ["1", "1", "1", "1"]}}, "explicit_paddings": {"list": {}}, "T": {"type": "DT_FLOAT"}}}, {"name": "StatefulPartitionedCall/sequential/module_wrapper_1/sep_conv_lst_m2d_1/while/next_iteration/_111", "op": "NextIteration", "input": ["StatefulPartitionedCall/sequential/module_wrapper_1/sep_conv_lst_m2d_1/while/body/_67/sequential/module_wrapper_1/sep_conv_lst_m2d_1/while/add_8", "^Func/StatefulPartitionedCall/sequential/module_wrapper_1/sep_conv_lst_m2d_1/while/body/_67/output_control_node/_202", "^StatefulPartitionedCall/sequential/module_wrapper_1/sep_conv_lst_m2d_1/while/body/_67/sequential/module_wrapper_1/sep_conv_lst_m2d_1/while/NoOp"], "attr": {"T": {"type": "DT_INT32"}}}, {"name": "StatefulPartitionedCall/sequential/module_wrapper_1/sep_conv_lst_m2d_1/while/next_iteration/_109", "op": "NextIteration", "input": ["StatefulPartitionedCall/sequential/module_wrapper_1/sep_conv_lst_m2d_1/while/body/_67/sequential/module_wrapper_1/sep_conv_lst_m2d_1/while/add_9", "^Func/StatefulPartitionedCall/sequential/module_wrapper_1/sep_conv_lst_m2d_1/while/body/_67/output_control_node/_202", "^StatefulPartitionedCall/sequential/module_wrapper_1/sep_conv_lst_m2d_1/while/body/_67/sequential/module_wrapper_1/sep_conv_lst_m2d_1/while/NoOp"], "attr": {"T": {"type": "DT_INT32"}}}, {"name": "StatefulPartitionedCall/sequential/dense/BiasAdd", "op": "_FusedMatMul", "input": ["StatefulPartitionedCall/sequential/flatten/Reshape", "StatefulPartitionedCall/sequential/dense/MatMul/ReadVariableOp", "StatefulPartitionedCall/sequential/dense/BiasAdd/ReadVariableOp"], "device": "/device:CPU:0", "attr": {"epsilon": {"f": 0.0}, "transpose_b": {"b": false}, "T": {"type": "DT_FLOAT"}, "leakyrelu_alpha": {"f": 0.2}, "transpose_a": {"b": false}, "num_args": {"i": "1"}, "fused_ops": {"list": {"s": ["Qmlhc0FkZA=="]}}}}, {"name": "StatefulPartitionedCall/sequential/module_wrapper_1/sep_conv_lst_m2d_1/while/body/_67/sequential/module_wrapper_1/sep_conv_lst_m2d_1/while/BiasAdd_3", "op": "_FusedConv2D", "input": ["StatefulPartitionedCall/sequential/module_wrapper_1/sep_conv_lst_m2d_1/while/body/_67/sequential/module_wrapper_1/sep_conv_lst_m2d_1/while/separable_conv2d_3/depthwise", "ConstantFolding/StatefulPartitionedCall/sequential/module_wrapper_1/sep_conv_lst_m2d_1/while/body/_67/sequential/module_wrapper_1/sep_conv_lst_m2d_1/while/split_2-folded-3", "ConstantFolding/StatefulPartitionedCall/sequential/module_wrapper_1/sep_conv_lst_m2d_1/while/body/_67/sequential/module_wrapper_1/sep_conv_lst_m2d_1/while/split_4-folded-3"], "device": "/device:CPU:0", "attr": {"fused_ops": {"list": {"s": ["Qmlhc0FkZA=="]}}, "T": {"type": "DT_FLOAT"}, "filter_format": {"s": "SFdJTw=="}, "use_cudnn_on_gpu": {"b": true}, "explicit_paddings": {"list": {}}, "data_format": {"s": "TkhXQw=="}, "strides": {"list": {"i": ["1", "1", "1", "1"]}}, "padding": {"s": "VkFMSUQ="}, "dilations": {"list": {"i": ["1", "1", "1", "1"]}}, "epsilon": {"f": 0.0}, "num_host_args": {"i": "0"}, "num_args": {"i": "1"}, "leakyrelu_alpha": {"f": 0.2}, "TArgs": {"list": {"type": ["DT_FLOAT"]}}}}, {"name": "StatefulPartitionedCall/sequential/module_wrapper_1/sep_conv_lst_m2d_1/while/body/_67/sequential/module_wrapper_1/sep_conv_lst_m2d_1/while/BiasAdd_1", "op": "_FusedConv2D", "input": ["StatefulPartitionedCall/sequential/module_wrapper_1/sep_conv_lst_m2d_1/while/body/_67/sequential/module_wrapper_1/sep_conv_lst_m2d_1/while/separable_conv2d_1/depthwise", "ConstantFolding/StatefulPartitionedCall/sequential/module_wrapper_1/sep_conv_lst_m2d_1/while/body/_67/sequential/module_wrapper_1/sep_conv_lst_m2d_1/while/split_2-folded-1", "ConstantFolding/StatefulPartitionedCall/sequential/module_wrapper_1/sep_conv_lst_m2d_1/while/body/_67/sequential/module_wrapper_1/sep_conv_lst_m2d_1/while/split_4-folded-1"], "device": "/device:CPU:0", "attr": {"leakyrelu_alpha": {"f": 0.2}, "fused_ops": {"list": {"s": ["Qmlhc0FkZA=="]}}, "epsilon": {"f": 0.0}, "num_host_args": {"i": "0"}, "num_args": {"i": "1"}, "dilations": {"list": {"i": ["1", "1", "1", "1"]}}, "data_format": {"s": "TkhXQw=="}, "padding": {"s": "VkFMSUQ="}, "explicit_paddings": {"list": {}}, "filter_format": {"s": "SFdJTw=="}, "TArgs": {"list": {"type": ["DT_FLOAT"]}}, "T": {"type": "DT_FLOAT"}, "use_cudnn_on_gpu": {"b": true}, "strides": {"list": {"i": ["1", "1", "1", "1"]}}}}, {"name": "StatefulPartitionedCall/sequential/module_wrapper_1/sep_conv_lst_m2d_1/while/body/_67/sequential/module_wrapper_1/sep_conv_lst_m2d_1/while/BiasAdd", "op": "_FusedConv2D", "input": ["StatefulPartitionedCall/sequential/module_wrapper_1/sep_conv_lst_m2d_1/while/body/_67/sequential/module_wrapper_1/sep_conv_lst_m2d_1/while/separable_conv2d/depthwise", "ConstantFolding/StatefulPartitionedCall/sequential/module_wrapper_1/sep_conv_lst_m2d_1/while/body/_67/sequential/module_wrapper_1/sep_conv_lst_m2d_1/while/split_2-folded-0", "ConstantFolding/StatefulPartitionedCall/sequential/module_wrapper_1/sep_conv_lst_m2d_1/while/body/_67/sequential/module_wrapper_1/sep_conv_lst_m2d_1/while/split_4-folded-0"], "device": "/device:CPU:0", "attr": {"filter_format": {"s": "SFdJTw=="}, "use_cudnn_on_gpu": {"b": true}, "explicit_paddings": {"list": {}}, "data_format": {"s": "TkhXQw=="}, "num_host_args": {"i": "0"}, "strides": {"list": {"i": ["1", "1", "1", "1"]}}, "padding": {"s": "VkFMSUQ="}, "fused_ops": {"list": {"s": ["Qmlhc0FkZA=="]}}, "T": {"type": "DT_FLOAT"}, "num_args": {"i": "1"}, "TArgs": {"list": {"type": ["DT_FLOAT"]}}, "dilations": {"list": {"i": ["1", "1", "1", "1"]}}, "epsilon": {"f": 0.0}, "leakyrelu_alpha": {"f": 0.2}}}, {"name": "StatefulPartitionedCall/sequential/module_wrapper_1/sep_conv_lst_m2d_1/while/body/_67/sequential/module_wrapper_1/sep_conv_lst_m2d_1/while/BiasAdd_2", "op": "_FusedConv2D", "input": ["StatefulPartitionedCall/sequential/module_wrapper_1/sep_conv_lst_m2d_1/while/body/_67/sequential/module_wrapper_1/sep_conv_lst_m2d_1/while/separable_conv2d_2/depthwise", "ConstantFolding/StatefulPartitionedCall/sequential/module_wrapper_1/sep_conv_lst_m2d_1/while/body/_67/sequential/module_wrapper_1/sep_conv_lst_m2d_1/while/split_2-folded-2", "ConstantFolding/StatefulPartitionedCall/sequential/module_wrapper_1/sep_conv_lst_m2d_1/while/body/_67/sequential/module_wrapper_1/sep_conv_lst_m2d_1/while/split_4-folded-2"], "device": "/device:CPU:0", "attr": {"data_format": {"s": "TkhXQw=="}, "dilations": {"list": {"i": ["1", "1", "1", "1"]}}, "num_host_args": {"i": "0"}, "filter_format": {"s": "SFdJTw=="}, "leakyrelu_alpha": {"f": 0.2}, "num_args": {"i": "1"}, "explicit_paddings": {"list": {}}, "padding": {"s": "VkFMSUQ="}, "epsilon": {"f": 0.0}, "use_cudnn_on_gpu": {"b": true}, "fused_ops": {"list": {"s": ["Qmlhc0FkZA=="]}}, "strides": {"list": {"i": ["1", "1", "1", "1"]}}, "TArgs": {"list": {"type": ["DT_FLOAT"]}}, "T": {"type": "DT_FLOAT"}}}, {"name": "StatefulPartitionedCall/sequential/dense/Softmax", "op": "Softmax", "input": ["StatefulPartitionedCall/sequential/dense/BiasAdd"], "attr": {"T": {"type": "DT_FLOAT"}}}, {"name": "StatefulPartitionedCall/sequential/module_wrapper_1/sep_conv_lst_m2d_1/while/body/_67/sequential/module_wrapper_1/sep_conv_lst_m2d_1/while/add_6", "op": "AddV2", "input": ["StatefulPartitionedCall/sequential/module_wrapper_1/sep_conv_lst_m2d_1/while/body/_67/sequential/module_wrapper_1/sep_conv_lst_m2d_1/while/BiasAdd_3", "StatefulPartitionedCall/sequential/module_wrapper_1/sep_conv_lst_m2d_1/while/body/_67/sequential/module_wrapper_1/sep_conv_lst_m2d_1/while/separable_conv2d_7"], "attr": {"T": {"type": "DT_FLOAT"}}}, {"name": "StatefulPartitionedCall/sequential/module_wrapper_1/sep_conv_lst_m2d_1/while/body/_67/sequential/module_wrapper_1/sep_conv_lst_m2d_1/while/add_2", "op": "AddV2", "input": ["StatefulPartitionedCall/sequential/module_wrapper_1/sep_conv_lst_m2d_1/while/body/_67/sequential/module_wrapper_1/sep_conv_lst_m2d_1/while/BiasAdd_1", "StatefulPartitionedCall/sequential/module_wrapper_1/sep_conv_lst_m2d_1/while/body/_67/sequential/module_wrapper_1/sep_conv_lst_m2d_1/while/separable_conv2d_5"], "attr": {"T": {"type": "DT_FLOAT"}}}, {"name": "StatefulPartitionedCall/sequential/module_wrapper_1/sep_conv_lst_m2d_1/while/body/_67/sequential/module_wrapper_1/sep_conv_lst_m2d_1/while/add", "op": "AddV2", "input": ["StatefulPartitionedCall/sequential/module_wrapper_1/sep_conv_lst_m2d_1/while/body/_67/sequential/module_wrapper_1/sep_conv_lst_m2d_1/while/BiasAdd", "StatefulPartitionedCall/sequential/module_wrapper_1/sep_conv_lst_m2d_1/while/body/_67/sequential/module_wrapper_1/sep_conv_lst_m2d_1/while/separable_conv2d_4"], "attr": {"T": {"type": "DT_FLOAT"}}}, {"name": "StatefulPartitionedCall/sequential/module_wrapper_1/sep_conv_lst_m2d_1/while/body/_67/sequential/module_wrapper_1/sep_conv_lst_m2d_1/while/add_4", "op": "AddV2", "input": ["StatefulPartitionedCall/sequential/module_wrapper_1/sep_conv_lst_m2d_1/while/body/_67/sequential/module_wrapper_1/sep_conv_lst_m2d_1/while/BiasAdd_2", "StatefulPartitionedCall/sequential/module_wrapper_1/sep_conv_lst_m2d_1/while/body/_67/sequential/module_wrapper_1/sep_conv_lst_m2d_1/while/separable_conv2d_6"], "attr": {"T": {"type": "DT_FLOAT"}}}, {"name": "Identity", "op": "Identity", "input": ["StatefulPartitionedCall/sequential/dense/Softmax", "^StatefulPartitionedCall/sequential/module_wrapper_1/sep_conv_lst_m2d_1/while/exit/_107", "^StatefulPartitionedCall/sequential/module_wrapper/sep_conv_lst_m2d/while/exit/_55", "^StatefulPartitionedCall/sequential/module_wrapper_1/sep_conv_lst_m2d_1/while/exit/_102", "^StatefulPartitionedCall/sequential/module_wrapper_1/sep_conv_lst_m2d_1/while/exit/_103", "^StatefulPartitionedCall/sequential/module_wrapper_1/sep_conv_lst_m2d_1/while/exit/_104", "^StatefulPartitionedCall/sequential/module_wrapper_1/sep_conv_lst_m2d_1/while/exit/_105", "^StatefulPartitionedCall/sequential/module_wrapper_1/sep_conv_lst_m2d_1/while/exit/_106", "^StatefulPartitionedCall/sequential/module_wrapper/sep_conv_lst_m2d/while/exit/_49", "^StatefulPartitionedCall/sequential/module_wrapper/sep_conv_lst_m2d/while/exit/_50", "^StatefulPartitionedCall/sequential/module_wrapper/sep_conv_lst_m2d/while/exit/_56", "^StatefulPartitionedCall/sequential/module_wrapper/sep_conv_lst_m2d/while/exit/_51", "^StatefulPartitionedCall/sequential/module_wrapper/sep_conv_lst_m2d/while/exit/_52", "^StatefulPartitionedCall/sequential/module_wrapper/sep_conv_lst_m2d/while/exit/_53", "^StatefulPartitionedCall/sequential/module_wrapper/sep_conv_lst_m2d/while/exit/_54", "^StatefulPartitionedCall/sequential/module_wrapper_1/sep_conv_lst_m2d_1/while/exit/_100", "^StatefulPartitionedCall/sequential/module_wrapper_1/sep_conv_lst_m2d_1/while/exit/_101"], "attr": {"T": {"type": "DT_FLOAT"}}}, {"name": "StatefulPartitionedCall/sequential/module_wrapper_1/sep_conv_lst_m2d_1/while/body/_67/sequential/module_wrapper_1/sep_conv_lst_m2d_1/while/Mul_4", "op": "Mul", "input": ["StatefulPartitionedCall/sequential/module_wrapper_1/sep_conv_lst_m2d_1/while/body/_67/sequential/module_wrapper_1/sep_conv_lst_m2d_1/while/add_6", "StatefulPartitionedCall/sequential/module_wrapper_1/sep_conv_lst_m2d_1/while/body/_67/sequential/module_wrapper_1/sep_conv_lst_m2d_1/while/Const_4"], "attr": {"T": {"type": "DT_FLOAT"}}}, {"name": "StatefulPartitionedCall/sequential/module_wrapper_1/sep_conv_lst_m2d_1/while/body/_67/sequential/module_wrapper_1/sep_conv_lst_m2d_1/while/Mul_1", "op": "Mul", "input": ["StatefulPartitionedCall/sequential/module_wrapper_1/sep_conv_lst_m2d_1/while/body/_67/sequential/module_wrapper_1/sep_conv_lst_m2d_1/while/add_2", "StatefulPartitionedCall/sequential/module_wrapper_1/sep_conv_lst_m2d_1/while/body/_67/sequential/module_wrapper_1/sep_conv_lst_m2d_1/while/Const_2"], "attr": {"T": {"type": "DT_FLOAT"}}}, {"name": "StatefulPartitionedCall/sequential/module_wrapper_1/sep_conv_lst_m2d_1/while/body/_67/sequential/module_wrapper_1/sep_conv_lst_m2d_1/while/Mul", "op": "Mul", "input": ["StatefulPartitionedCall/sequential/module_wrapper_1/sep_conv_lst_m2d_1/while/body/_67/sequential/module_wrapper_1/sep_conv_lst_m2d_1/while/add", "StatefulPartitionedCall/sequential/module_wrapper_1/sep_conv_lst_m2d_1/while/body/_67/sequential/module_wrapper_1/sep_conv_lst_m2d_1/while/Const"], "attr": {"T": {"type": "DT_FLOAT"}}}, {"name": "StatefulPartitionedCall/sequential/module_wrapper_1/sep_conv_lst_m2d_1/while/body/_67/sequential/module_wrapper_1/sep_conv_lst_m2d_1/while/Tanh", "op": "Tanh", "input": ["StatefulPartitionedCall/sequential/module_wrapper_1/sep_conv_lst_m2d_1/while/body/_67/sequential/module_wrapper_1/sep_conv_lst_m2d_1/while/add_4"], "attr": {"T": {"type": "DT_FLOAT"}}}, {"name": "StatefulPartitionedCall/sequential/module_wrapper_1/sep_conv_lst_m2d_1/while/body/_67/sequential/module_wrapper_1/sep_conv_lst_m2d_1/while/Add_7", "op": "AddV2", "input": ["StatefulPartitionedCall/sequential/module_wrapper_1/sep_conv_lst_m2d_1/while/body/_67/sequential/module_wrapper_1/sep_conv_lst_m2d_1/while/Mul_4", "StatefulPartitionedCall/sequential/module_wrapper_1/sep_conv_lst_m2d_1/while/body/_67/sequential/module_wrapper_1/sep_conv_lst_m2d_1/while/Const_5"], "attr": {"T": {"type": "DT_FLOAT"}}}, {"name": "StatefulPartitionedCall/sequential/module_wrapper_1/sep_conv_lst_m2d_1/while/body/_67/sequential/module_wrapper_1/sep_conv_lst_m2d_1/while/Add_3", "op": "AddV2", "input": ["StatefulPartitionedCall/sequential/module_wrapper_1/sep_conv_lst_m2d_1/while/body/_67/sequential/module_wrapper_1/sep_conv_lst_m2d_1/while/Mul_1", "StatefulPartitionedCall/sequential/module_wrapper_1/sep_conv_lst_m2d_1/while/body/_67/sequential/module_wrapper_1/sep_conv_lst_m2d_1/while/Const_3"], "attr": {"T": {"type": "DT_FLOAT"}}}, {"name": "StatefulPartitionedCall/sequential/module_wrapper_1/sep_conv_lst_m2d_1/while/body/_67/sequential/module_wrapper_1/sep_conv_lst_m2d_1/while/Add_1", "op": "AddV2", "input": ["StatefulPartitionedCall/sequential/module_wrapper_1/sep_conv_lst_m2d_1/while/body/_67/sequential/module_wrapper_1/sep_conv_lst_m2d_1/while/Mul", "StatefulPartitionedCall/sequential/module_wrapper_1/sep_conv_lst_m2d_1/while/body/_67/sequential/module_wrapper_1/sep_conv_lst_m2d_1/while/Const_1"], "attr": {"T": {"type": "DT_FLOAT"}}}, {"name": "StatefulPartitionedCall/sequential/module_wrapper_1/sep_conv_lst_m2d_1/while/body/_67/sequential/module_wrapper_1/sep_conv_lst_m2d_1/while/clip_by_value_2/Minimum", "op": "Minimum", "input": ["StatefulPartitionedCall/sequential/module_wrapper_1/sep_conv_lst_m2d_1/while/body/_67/sequential/module_wrapper_1/sep_conv_lst_m2d_1/while/Add_7", "StatefulPartitionedCall/sequential/module_wrapper_1/sep_conv_lst_m2d_1/while/body/_67/sequential/module_wrapper_1/sep_conv_lst_m2d_1/while/clip_by_value_2/Minimum/y"], "attr": {"T": {"type": "DT_FLOAT"}}}, {"name": "StatefulPartitionedCall/sequential/module_wrapper_1/sep_conv_lst_m2d_1/while/body/_67/sequential/module_wrapper_1/sep_conv_lst_m2d_1/while/clip_by_value_1/Minimum", "op": "Minimum", "input": ["StatefulPartitionedCall/sequential/module_wrapper_1/sep_conv_lst_m2d_1/while/body/_67/sequential/module_wrapper_1/sep_conv_lst_m2d_1/while/Add_3", "StatefulPartitionedCall/sequential/module_wrapper_1/sep_conv_lst_m2d_1/while/body/_67/sequential/module_wrapper_1/sep_conv_lst_m2d_1/while/clip_by_value_1/Minimum/y"], "attr": {"T": {"type": "DT_FLOAT"}}}, {"name": "StatefulPartitionedCall/sequential/module_wrapper_1/sep_conv_lst_m2d_1/while/body/_67/sequential/module_wrapper_1/sep_conv_lst_m2d_1/while/clip_by_value/Minimum", "op": "Minimum", "input": ["StatefulPartitionedCall/sequential/module_wrapper_1/sep_conv_lst_m2d_1/while/body/_67/sequential/module_wrapper_1/sep_conv_lst_m2d_1/while/Add_1", "StatefulPartitionedCall/sequential/module_wrapper_1/sep_conv_lst_m2d_1/while/body/_67/sequential/module_wrapper_1/sep_conv_lst_m2d_1/while/clip_by_value/Minimum/y"], "attr": {"T": {"type": "DT_FLOAT"}}}, {"name": "StatefulPartitionedCall/sequential/module_wrapper_1/sep_conv_lst_m2d_1/while/body/_67/sequential/module_wrapper_1/sep_conv_lst_m2d_1/while/clip_by_value_2", "op": "Maximum", "input": ["StatefulPartitionedCall/sequential/module_wrapper_1/sep_conv_lst_m2d_1/while/body/_67/sequential/module_wrapper_1/sep_conv_lst_m2d_1/while/clip_by_value_2/Minimum", "StatefulPartitionedCall/sequential/module_wrapper_1/sep_conv_lst_m2d_1/while/body/_67/sequential/module_wrapper_1/sep_conv_lst_m2d_1/while/clip_by_value_2/y"], "attr": {"T": {"type": "DT_FLOAT"}}}, {"name": "StatefulPartitionedCall/sequential/module_wrapper_1/sep_conv_lst_m2d_1/while/body/_67/sequential/module_wrapper_1/sep_conv_lst_m2d_1/while/clip_by_value_1", "op": "Maximum", "input": ["StatefulPartitionedCall/sequential/module_wrapper_1/sep_conv_lst_m2d_1/while/body/_67/sequential/module_wrapper_1/sep_conv_lst_m2d_1/while/clip_by_value_1/Minimum", "StatefulPartitionedCall/sequential/module_wrapper_1/sep_conv_lst_m2d_1/while/body/_67/sequential/module_wrapper_1/sep_conv_lst_m2d_1/while/clip_by_value_1/y"], "attr": {"T": {"type": "DT_FLOAT"}}}, {"name": "StatefulPartitionedCall/sequential/module_wrapper_1/sep_conv_lst_m2d_1/while/body/_67/sequential/module_wrapper_1/sep_conv_lst_m2d_1/while/clip_by_value", "op": "Maximum", "input": ["StatefulPartitionedCall/sequential/module_wrapper_1/sep_conv_lst_m2d_1/while/body/_67/sequential/module_wrapper_1/sep_conv_lst_m2d_1/while/clip_by_value/Minimum", "StatefulPartitionedCall/sequential/module_wrapper_1/sep_conv_lst_m2d_1/while/body/_67/sequential/module_wrapper_1/sep_conv_lst_m2d_1/while/clip_by_value/y"], "attr": {"T": {"type": "DT_FLOAT"}}}, {"name": "StatefulPartitionedCall/sequential/module_wrapper_1/sep_conv_lst_m2d_1/while/body/_67/sequential/module_wrapper_1/sep_conv_lst_m2d_1/while/mul_2", "op": "Mul", "input": ["StatefulPartitionedCall/sequential/module_wrapper_1/sep_conv_lst_m2d_1/while/body/_67/sequential/module_wrapper_1/sep_conv_lst_m2d_1/while/clip_by_value_1", "StatefulPartitionedCall/sequential/module_wrapper_1/sep_conv_lst_m2d_1/while/StatefulPartitionedCall/sequential/module_wrapper_1/sep_conv_lst_m2d_1/separable_conv2d_switch/_96:1"], "attr": {"T": {"type": "DT_FLOAT"}}}, {"name": "StatefulPartitionedCall/sequential/module_wrapper_1/sep_conv_lst_m2d_1/while/body/_67/sequential/module_wrapper_1/sep_conv_lst_m2d_1/while/mul_3", "op": "Mul", "input": ["StatefulPartitionedCall/sequential/module_wrapper_1/sep_conv_lst_m2d_1/while/body/_67/sequential/module_wrapper_1/sep_conv_lst_m2d_1/while/clip_by_value", "StatefulPartitionedCall/sequential/module_wrapper_1/sep_conv_lst_m2d_1/while/body/_67/sequential/module_wrapper_1/sep_conv_lst_m2d_1/while/Tanh"], "attr": {"T": {"type": "DT_FLOAT"}}}, {"name": "StatefulPartitionedCall/sequential/module_wrapper_1/sep_conv_lst_m2d_1/while/body/_67/sequential/module_wrapper_1/sep_conv_lst_m2d_1/while/add_5", "op": "AddV2", "input": ["StatefulPartitionedCall/sequential/module_wrapper_1/sep_conv_lst_m2d_1/while/body/_67/sequential/module_wrapper_1/sep_conv_lst_m2d_1/while/mul_2", "StatefulPartitionedCall/sequential/module_wrapper_1/sep_conv_lst_m2d_1/while/body/_67/sequential/module_wrapper_1/sep_conv_lst_m2d_1/while/mul_3"], "attr": {"T": {"type": "DT_FLOAT"}}}, {"name": "StatefulPartitionedCall/sequential/module_wrapper_1/sep_conv_lst_m2d_1/while/body/_67/sequential/module_wrapper_1/sep_conv_lst_m2d_1/while/Tanh_1", "op": "Tanh", "input": ["StatefulPartitionedCall/sequential/module_wrapper_1/sep_conv_lst_m2d_1/while/body/_67/sequential/module_wrapper_1/sep_conv_lst_m2d_1/while/add_5"], "attr": {"T": {"type": "DT_FLOAT"}}}, {"name": "StatefulPartitionedCall/sequential/module_wrapper_1/sep_conv_lst_m2d_1/while/next_iteration/_114", "op": "NextIteration", "input": ["StatefulPartitionedCall/sequential/module_wrapper_1/sep_conv_lst_m2d_1/while/body/_67/sequential/module_wrapper_1/sep_conv_lst_m2d_1/while/add_5", "^Func/StatefulPartitionedCall/sequential/module_wrapper_1/sep_conv_lst_m2d_1/while/body/_67/output_control_node/_202", "^StatefulPartitionedCall/sequential/module_wrapper_1/sep_conv_lst_m2d_1/while/body/_67/sequential/module_wrapper_1/sep_conv_lst_m2d_1/while/NoOp"], "attr": {"T": {"type": "DT_FLOAT"}}}, {"name": "StatefulPartitionedCall/sequential/module_wrapper_1/sep_conv_lst_m2d_1/while/body/_67/sequential/module_wrapper_1/sep_conv_lst_m2d_1/while/mul_5", "op": "Mul", "input": ["StatefulPartitionedCall/sequential/module_wrapper_1/sep_conv_lst_m2d_1/while/body/_67/sequential/module_wrapper_1/sep_conv_lst_m2d_1/while/clip_by_value_2", "StatefulPartitionedCall/sequential/module_wrapper_1/sep_conv_lst_m2d_1/while/body/_67/sequential/module_wrapper_1/sep_conv_lst_m2d_1/while/Tanh_1"], "attr": {"T": {"type": "DT_FLOAT"}}}, {"name": "StatefulPartitionedCall/sequential/module_wrapper_1/sep_conv_lst_m2d_1/while/body/_67/sequential/module_wrapper_1/sep_conv_lst_m2d_1/while/TensorArrayV2Write/TensorListSetItem", "op": "TensorListSetItem", "input": ["StatefulPartitionedCall/sequential/module_wrapper_1/sep_conv_lst_m2d_1/while/StatefulPartitionedCall/sequential/module_wrapper_1/sep_conv_lst_m2d_1/TensorArrayV2_1_switch/_94:1", "Func/StatefulPartitionedCall/sequential/module_wrapper_1/sep_conv_lst_m2d_1/while/body/_67/input/_178", "StatefulPartitionedCall/sequential/module_wrapper_1/sep_conv_lst_m2d_1/while/body/_67/sequential/module_wrapper_1/sep_conv_lst_m2d_1/while/mul_5"], "attr": {"resize_if_index_out_of_bounds": {"b": false}, "element_dtype": {"type": "DT_FLOAT"}}, "experimentalType": {"typeId": "TFT_PRODUCT", "args": [{"typeId": "TFT_ARRAY", "args": [{"typeId": "TFT_TENSOR", "args": [{"typeId": "TFT_FLOAT"}]}]}]}}, {"name": "StatefulPartitionedCall/sequential/module_wrapper_1/sep_conv_lst_m2d_1/while/next_iteration/_113", "op": "NextIteration", "input": ["StatefulPartitionedCall/sequential/module_wrapper_1/sep_conv_lst_m2d_1/while/body/_67/sequential/module_wrapper_1/sep_conv_lst_m2d_1/while/mul_5", "^Func/StatefulPartitionedCall/sequential/module_wrapper_1/sep_conv_lst_m2d_1/while/body/_67/output_control_node/_202", "^StatefulPartitionedCall/sequential/module_wrapper_1/sep_conv_lst_m2d_1/while/body/_67/sequential/module_wrapper_1/sep_conv_lst_m2d_1/while/NoOp"], "attr": {"T": {"type": "DT_FLOAT"}}}, {"name": "StatefulPartitionedCall/sequential/module_wrapper_1/sep_conv_lst_m2d_1/while/next_iteration/_112", "op": "NextIteration", "input": ["StatefulPartitionedCall/sequential/module_wrapper_1/sep_conv_lst_m2d_1/while/body/_67/sequential/module_wrapper_1/sep_conv_lst_m2d_1/while/TensorArrayV2Write/TensorListSetItem", "^Func/StatefulPartitionedCall/sequential/module_wrapper_1/sep_conv_lst_m2d_1/while/body/_67/output_control_node/_202", "^StatefulPartitionedCall/sequential/module_wrapper_1/sep_conv_lst_m2d_1/while/body/_67/sequential/module_wrapper_1/sep_conv_lst_m2d_1/while/NoOp"], "attr": {"T": {"type": "DT_VARIANT"}}}], "library": {}, "versions": {"producer": 1882}}, "weightsManifest": [{"paths": ["group1-shard1of2.bin", "group1-shard2of2.bin"], "weights": [{"name": "StatefulPartitionedCall/sequential/module_wrapper_1/sep_conv_lst_m2d_1/TensorArrayV2Stack/TensorListStack/element_shape", "shape": [4], "dtype": "int32"}, {"name": "StatefulPartitionedCall/sequential/module_wrapper_1/sep_conv_lst_m2d_1/transpose_1/perm", "shape": [5], "dtype": "int32"}, {"name": "StatefulPartitionedCall/sequential/flatten/Const", "shape": [2], "dtype": "int32"}, {"name": "StatefulPartitionedCall/sequential/dense/MatMul/ReadVariableOp", "shape": [800000, 2], "dtype": "float32"}, {"name": "StatefulPartitionedCall/sequential/dense/BiasAdd/ReadVariableOp", "shape": [2], "dtype": "float32"}, {"name": "StatefulPartitionedCall/sequential/module_wrapper_1/sep_conv_lst_m2d_1/while/maximum_iterations", "shape": [], "dtype": "int32"}, {"name": "StatefulPartitionedCall/sequential/module_wrapper_1/sep_conv_lst_m2d_1/time", "shape": [], "dtype": "int32"}, {"name": "StatefulPartitionedCall/sequential/module_wrapper_1/sep_conv_lst_m2d_1/while/loop_counter", "shape": [], "dtype": "int32"}, {"name": "Func/StatefulPartitionedCall/input/_6", "shape": [3, 3, 32, 4], "dtype": "float32"}, {"name": "Func/StatefulPartitionedCall/input/_7", "shape": [3, 3, 64, 4], "dtype": "float32"}, {"name": "Func/StatefulPartitionedCall/input/_8", "shape": [1, 1, 32, 256], "dtype": "float32"}, {"name": "Func/StatefulPartitionedCall/input/_9", "shape": [1, 1, 64, 256], "dtype": "float32"}, {"name": "Func/StatefulPartitionedCall/input/_10", "shape": [256], "dtype": "float32"}, {"name": "StatefulPartitionedCall/sequential/module_wrapper_1/sep_conv_lst_m2d_1/TensorArrayV2_1/element_shape", "shape": [4], "dtype": "int32"}, {"name": "StatefulPartitionedCall/sequential/module_wrapper_1/sep_conv_lst_m2d_1/strided_slice/stack", "shape": [1], "dtype": "int32"}, {"name": "StatefulPartitionedCall/sequential/module_wrapper_1/sep_conv_lst_m2d_1/strided_slice/stack_1", "shape": [1], "dtype": "int32"}, {"name": "StatefulPartitionedCall/sequential/module_wrapper_1/sep_conv_lst_m2d_1/strided_slice/stack_2", "shape": [1], "dtype": "int32"}, {"name": "StatefulPartitionedCall/sequential/module_wrapper_1/sep_conv_lst_m2d_1/Sum/reduction_indices", "shape": [], "dtype": "int32"}, {"name": "StatefulPartitionedCall/sequential/module_wrapper_1/sep_conv_lst_m2d_1/zeros", "shape": [3, 3, 32, 1], "dtype": "float32"}, {"name": "StatefulPartitionedCall/sequential/module_wrapper_1/sep_conv_lst_m2d_1/zeros_1", "shape": [1, 1, 32, 64], "dtype": "float32"}, {"name": "StatefulPartitionedCall/sequential/module_wrapper/sep_conv_lst_m2d/time", "shape": [], "dtype": "int32"}, {"name": "StatefulPartitionedCall/sequential/module_wrapper/sep_conv_lst_m2d/while/loop_counter", "shape": [], "dtype": "int32"}, {"name": "StatefulPartitionedCall/sequential/module_wrapper/sep_conv_lst_m2d/while/maximum_iterations", "shape": [], "dtype": "int32"}, {"name": "Func/StatefulPartitionedCall/input/_1", "shape": [3, 3, 3, 4], "dtype": "float32"}, {"name": "Func/StatefulPartitionedCall/input/_2", "shape": [3, 3, 32, 4], "dtype": "float32"}, {"name": "Func/StatefulPartitionedCall/input/_3", "shape": [1, 1, 3, 128], "dtype": "float32"}, {"name": "Func/StatefulPartitionedCall/input/_4", "shape": [1, 1, 32, 128], "dtype": "float32"}, {"name": "Func/StatefulPartitionedCall/input/_5", "shape": [128], "dtype": "float32"}, {"name": "StatefulPartitionedCall/sequential/module_wrapper/sep_conv_lst_m2d/TensorArrayV2_1/element_shape", "shape": [4], "dtype": "int32"}, {"name": "StatefulPartitionedCall/sequential/module_wrapper/sep_conv_lst_m2d/strided_slice/stack", "shape": [1], "dtype": "int32"}, {"name": "StatefulPartitionedCall/sequential/module_wrapper/sep_conv_lst_m2d/strided_slice/stack_1", "shape": [1], "dtype": "int32"}, {"name": "StatefulPartitionedCall/sequential/module_wrapper/sep_conv_lst_m2d/strided_slice/stack_2", "shape": [1], "dtype": "int32"}, {"name": "StatefulPartitionedCall/sequential/module_wrapper/sep_conv_lst_m2d/Sum/reduction_indices", "shape": [], "dtype": "int32"}, {"name": "StatefulPartitionedCall/sequential/module_wrapper/sep_conv_lst_m2d/zeros", "shape": [3, 3, 3, 1], "dtype": "float32"}, {"name": "StatefulPartitionedCall/sequential/module_wrapper/sep_conv_lst_m2d/zeros_1", "shape": [1, 1, 3, 32], "dtype": "float32"}, {"name": "StatefulPartitionedCall/sequential/module_wrapper/sep_conv_lst_m2d/transpose/perm", "shape": [5], "dtype": "int32"}, {"name": "StatefulPartitionedCall/sequential/module_wrapper/sep_conv_lst_m2d/TensorArrayUnstack/TensorListFromTensor/element_shape", "shape": [4], "dtype": "int32"}, {"name": "StatefulPartitionedCall/sequential/module_wrapper/sep_conv_lst_m2d/TensorArrayV2Stack/TensorListStack/element_shape", "shape": [4], "dtype": "int32"}, {"name": "StatefulPartitionedCall/sequential/module_wrapper/sep_conv_lst_m2d/transpose_1/perm", "shape": [5], "dtype": "int32"}, {"name": "StatefulPartitionedCall/sequential/module_wrapper_1/sep_conv_lst_m2d_1/transpose/perm", "shape": [5], "dtype": "int32"}, {"name": "StatefulPartitionedCall/sequential/module_wrapper_1/sep_conv_lst_m2d_1/TensorArrayUnstack/TensorListFromTensor/element_shape", "shape": [4], "dtype": "int32"}, {"name": "ConstantFolding/StatefulPartitionedCall/sequential/module_wrapper/sep_conv_lst_m2d/while/body/_16/sequential/module_wrapper/sep_conv_lst_m2d/while/split-folded-3", "shape": [3, 3, 3, 1], "dtype": "float32"}, {"name": "ConstantFolding/StatefulPartitionedCall/sequential/module_wrapper/sep_conv_lst_m2d/while/body/_16/sequential/module_wrapper/sep_conv_lst_m2d/while/split_2-folded-3", "shape": [1, 1, 3, 32], "dtype": "float32"}, {"name": "ConstantFolding/StatefulPartitionedCall/sequential/module_wrapper/sep_conv_lst_m2d/while/body/_16/sequential/module_wrapper/sep_conv_lst_m2d/while/split_1-folded-3", "shape": [3, 3, 32, 1], "dtype": "float32"}, {"name": "ConstantFolding/StatefulPartitionedCall/sequential/module_wrapper/sep_conv_lst_m2d/while/body/_16/sequential/module_wrapper/sep_conv_lst_m2d/while/split_3-folded-3", "shape": [1, 1, 32, 32], "dtype": "float32"}, {"name": "StatefulPartitionedCall/sequential/module_wrapper/sep_conv_lst_m2d/while/body/_16/sequential/module_wrapper/sep_conv_lst_m2d/while/Const_4", "shape": [], "dtype": "float32"}, {"name": "StatefulPartitionedCall/sequential/module_wrapper/sep_conv_lst_m2d/while/body/_16/sequential/module_wrapper/sep_conv_lst_m2d/while/Const_5", "shape": [], "dtype": "float32"}, {"name": "StatefulPartitionedCall/sequential/module_wrapper/sep_conv_lst_m2d/while/body/_16/sequential/module_wrapper/sep_conv_lst_m2d/while/clip_by_value_2/Minimum/y", "shape": [], "dtype": "float32"}, {"name": "StatefulPartitionedCall/sequential/module_wrapper/sep_conv_lst_m2d/while/body/_16/sequential/module_wrapper/sep_conv_lst_m2d/while/clip_by_value_2/y", "shape": [], "dtype": "float32"}, {"name": "ConstantFolding/StatefulPartitionedCall/sequential/module_wrapper/sep_conv_lst_m2d/while/body/_16/sequential/module_wrapper/sep_conv_lst_m2d/while/split-folded-1", "shape": [3, 3, 3, 1], "dtype": "float32"}, {"name": "ConstantFolding/StatefulPartitionedCall/sequential/module_wrapper/sep_conv_lst_m2d/while/body/_16/sequential/module_wrapper/sep_conv_lst_m2d/while/split_2-folded-1", "shape": [1, 1, 3, 32], "dtype": "float32"}, {"name": "ConstantFolding/StatefulPartitionedCall/sequential/module_wrapper/sep_conv_lst_m2d/while/body/_16/sequential/module_wrapper/sep_conv_lst_m2d/while/split_1-folded-1", "shape": [3, 3, 32, 1], "dtype": "float32"}, {"name": "ConstantFolding/StatefulPartitionedCall/sequential/module_wrapper/sep_conv_lst_m2d/while/body/_16/sequential/module_wrapper/sep_conv_lst_m2d/while/split_3-folded-1", "shape": [1, 1, 32, 32], "dtype": "float32"}, {"name": "StatefulPartitionedCall/sequential/module_wrapper/sep_conv_lst_m2d/while/body/_16/sequential/module_wrapper/sep_conv_lst_m2d/while/Const_2", "shape": [], "dtype": "float32"}, {"name": "StatefulPartitionedCall/sequential/module_wrapper/sep_conv_lst_m2d/while/body/_16/sequential/module_wrapper/sep_conv_lst_m2d/while/Const_3", "shape": [], "dtype": "float32"}, {"name": "StatefulPartitionedCall/sequential/module_wrapper/sep_conv_lst_m2d/while/body/_16/sequential/module_wrapper/sep_conv_lst_m2d/while/clip_by_value_1/Minimum/y", "shape": [], "dtype": "float32"}, {"name": "StatefulPartitionedCall/sequential/module_wrapper/sep_conv_lst_m2d/while/body/_16/sequential/module_wrapper/sep_conv_lst_m2d/while/clip_by_value_1/y", "shape": [], "dtype": "float32"}, {"name": "ConstantFolding/StatefulPartitionedCall/sequential/module_wrapper/sep_conv_lst_m2d/while/body/_16/sequential/module_wrapper/sep_conv_lst_m2d/while/split-folded-0", "shape": [3, 3, 3, 1], "dtype": "float32"}, {"name": "ConstantFolding/StatefulPartitionedCall/sequential/module_wrapper/sep_conv_lst_m2d/while/body/_16/sequential/module_wrapper/sep_conv_lst_m2d/while/split_2-folded-0", "shape": [1, 1, 3, 32], "dtype": "float32"}, {"name": "ConstantFolding/StatefulPartitionedCall/sequential/module_wrapper/sep_conv_lst_m2d/while/body/_16/sequential/module_wrapper/sep_conv_lst_m2d/while/split_1-folded-0", "shape": [3, 3, 32, 1], "dtype": "float32"}, {"name": "ConstantFolding/StatefulPartitionedCall/sequential/module_wrapper/sep_conv_lst_m2d/while/body/_16/sequential/module_wrapper/sep_conv_lst_m2d/while/split_3-folded-0", "shape": [1, 1, 32, 32], "dtype": "float32"}, {"name": "StatefulPartitionedCall/sequential/module_wrapper/sep_conv_lst_m2d/while/body/_16/sequential/module_wrapper/sep_conv_lst_m2d/while/Const", "shape": [], "dtype": "float32"}, {"name": "StatefulPartitionedCall/sequential/module_wrapper/sep_conv_lst_m2d/while/body/_16/sequential/module_wrapper/sep_conv_lst_m2d/while/Const_1", "shape": [], "dtype": "float32"}, {"name": "StatefulPartitionedCall/sequential/module_wrapper/sep_conv_lst_m2d/while/body/_16/sequential/module_wrapper/sep_conv_lst_m2d/while/clip_by_value/Minimum/y", "shape": [], "dtype": "float32"}, {"name": "StatefulPartitionedCall/sequential/module_wrapper/sep_conv_lst_m2d/while/body/_16/sequential/module_wrapper/sep_conv_lst_m2d/while/clip_by_value/y", "shape": [], "dtype": "float32"}, {"name": "StatefulPartitionedCall/sequential/module_wrapper/sep_conv_lst_m2d/while/body/_16/sequential/module_wrapper/sep_conv_lst_m2d/while/TensorArrayV2Read/TensorListGetItem/element_shape", "shape": [4], "dtype": "int32"}, {"name": "ConstantFolding/StatefulPartitionedCall/sequential/module_wrapper/sep_conv_lst_m2d/while/body/_16/sequential/module_wrapper/sep_conv_lst_m2d/while/split-folded-2", "shape": [3, 3, 3, 1], "dtype": "float32"}, {"name": "ConstantFolding/StatefulPartitionedCall/sequential/module_wrapper/sep_conv_lst_m2d/while/body/_16/sequential/module_wrapper/sep_conv_lst_m2d/while/split_2-folded-2", "shape": [1, 1, 3, 32], "dtype": "float32"}, {"name": "ConstantFolding/StatefulPartitionedCall/sequential/module_wrapper/sep_conv_lst_m2d/while/body/_16/sequential/module_wrapper/sep_conv_lst_m2d/while/split_1-folded-2", "shape": [3, 3, 32, 1], "dtype": "float32"}, {"name": "ConstantFolding/StatefulPartitionedCall/sequential/module_wrapper/sep_conv_lst_m2d/while/body/_16/sequential/module_wrapper/sep_conv_lst_m2d/while/split_3-folded-2", "shape": [1, 1, 32, 32], "dtype": "float32"}, {"name": "StatefulPartitionedCall/sequential/module_wrapper/sep_conv_lst_m2d/while/body/_16/sequential/module_wrapper/sep_conv_lst_m2d/while/add_8/y", "shape": [], "dtype": "int32"}, {"name": "StatefulPartitionedCall/sequential/module_wrapper/sep_conv_lst_m2d/while/body/_16/sequential/module_wrapper/sep_conv_lst_m2d/while/add_9/y", "shape": [], "dtype": "int32"}, {"name": "ConstantFolding/StatefulPartitionedCall/sequential/module_wrapper/sep_conv_lst_m2d/while/body/_16/sequential/module_wrapper/sep_conv_lst_m2d/while/split_4-folded-3", "shape": [32], "dtype": "float32"}, {"name": "ConstantFolding/StatefulPartitionedCall/sequential/module_wrapper/sep_conv_lst_m2d/while/body/_16/sequential/module_wrapper/sep_conv_lst_m2d/while/split_4-folded-1", "shape": [32], "dtype": "float32"}, {"name": "ConstantFolding/StatefulPartitionedCall/sequential/module_wrapper/sep_conv_lst_m2d/while/body/_16/sequential/module_wrapper/sep_conv_lst_m2d/while/split_4-folded-0", "shape": [32], "dtype": "float32"}, {"name": "ConstantFolding/StatefulPartitionedCall/sequential/module_wrapper/sep_conv_lst_m2d/while/body/_16/sequential/module_wrapper/sep_conv_lst_m2d/while/split_4-folded-2", "shape": [32], "dtype": "float32"}, {"name": "ConstantFolding/StatefulPartitionedCall/sequential/module_wrapper_1/sep_conv_lst_m2d_1/while/body/_67/sequential/module_wrapper_1/sep_conv_lst_m2d_1/while/split-folded-3", "shape": [3, 3, 32, 1], "dtype": "float32"}, {"name": "ConstantFolding/StatefulPartitionedCall/sequential/module_wrapper_1/sep_conv_lst_m2d_1/while/body/_67/sequential/module_wrapper_1/sep_conv_lst_m2d_1/while/split_2-folded-3", "shape": [1, 1, 32, 64], "dtype": "float32"}, {"name": "ConstantFolding/StatefulPartitionedCall/sequential/module_wrapper_1/sep_conv_lst_m2d_1/while/body/_67/sequential/module_wrapper_1/sep_conv_lst_m2d_1/while/split_1-folded-3", "shape": [3, 3, 64, 1], "dtype": "float32"}, {"name": "ConstantFolding/StatefulPartitionedCall/sequential/module_wrapper_1/sep_conv_lst_m2d_1/while/body/_67/sequential/module_wrapper_1/sep_conv_lst_m2d_1/while/split_3-folded-3", "shape": [1, 1, 64, 64], "dtype": "float32"}, {"name": "StatefulPartitionedCall/sequential/module_wrapper_1/sep_conv_lst_m2d_1/while/body/_67/sequential/module_wrapper_1/sep_conv_lst_m2d_1/while/Const_4", "shape": [], "dtype": "float32"}, {"name": "StatefulPartitionedCall/sequential/module_wrapper_1/sep_conv_lst_m2d_1/while/body/_67/sequential/module_wrapper_1/sep_conv_lst_m2d_1/while/Const_5", "shape": [], "dtype": "float32"}, {"name": "StatefulPartitionedCall/sequential/module_wrapper_1/sep_conv_lst_m2d_1/while/body/_67/sequential/module_wrapper_1/sep_conv_lst_m2d_1/while/clip_by_value_2/Minimum/y", "shape": [], "dtype": "float32"}, {"name": "StatefulPartitionedCall/sequential/module_wrapper_1/sep_conv_lst_m2d_1/while/body/_67/sequential/module_wrapper_1/sep_conv_lst_m2d_1/while/clip_by_value_2/y", "shape": [], "dtype": "float32"}, {"name": "ConstantFolding/StatefulPartitionedCall/sequential/module_wrapper_1/sep_conv_lst_m2d_1/while/body/_67/sequential/module_wrapper_1/sep_conv_lst_m2d_1/while/split-folded-1", "shape": [3, 3, 32, 1], "dtype": "float32"}, {"name": "ConstantFolding/StatefulPartitionedCall/sequential/module_wrapper_1/sep_conv_lst_m2d_1/while/body/_67/sequential/module_wrapper_1/sep_conv_lst_m2d_1/while/split_2-folded-1", "shape": [1, 1, 32, 64], "dtype": "float32"}, {"name": "ConstantFolding/StatefulPartitionedCall/sequential/module_wrapper_1/sep_conv_lst_m2d_1/while/body/_67/sequential/module_wrapper_1/sep_conv_lst_m2d_1/while/split_1-folded-1", "shape": [3, 3, 64, 1], "dtype": "float32"}, {"name": "ConstantFolding/StatefulPartitionedCall/sequential/module_wrapper_1/sep_conv_lst_m2d_1/while/body/_67/sequential/module_wrapper_1/sep_conv_lst_m2d_1/while/split_3-folded-1", "shape": [1, 1, 64, 64], "dtype": "float32"}, {"name": "StatefulPartitionedCall/sequential/module_wrapper_1/sep_conv_lst_m2d_1/while/body/_67/sequential/module_wrapper_1/sep_conv_lst_m2d_1/while/Const_2", "shape": [], "dtype": "float32"}, {"name": "StatefulPartitionedCall/sequential/module_wrapper_1/sep_conv_lst_m2d_1/while/body/_67/sequential/module_wrapper_1/sep_conv_lst_m2d_1/while/Const_3", "shape": [], "dtype": "float32"}, {"name": "StatefulPartitionedCall/sequential/module_wrapper_1/sep_conv_lst_m2d_1/while/body/_67/sequential/module_wrapper_1/sep_conv_lst_m2d_1/while/clip_by_value_1/Minimum/y", "shape": [], "dtype": "float32"}, {"name": "StatefulPartitionedCall/sequential/module_wrapper_1/sep_conv_lst_m2d_1/while/body/_67/sequential/module_wrapper_1/sep_conv_lst_m2d_1/while/clip_by_value_1/y", "shape": [], "dtype": "float32"}, {"name": "ConstantFolding/StatefulPartitionedCall/sequential/module_wrapper_1/sep_conv_lst_m2d_1/while/body/_67/sequential/module_wrapper_1/sep_conv_lst_m2d_1/while/split-folded-0", "shape": [3, 3, 32, 1], "dtype": "float32"}, {"name": "ConstantFolding/StatefulPartitionedCall/sequential/module_wrapper_1/sep_conv_lst_m2d_1/while/body/_67/sequential/module_wrapper_1/sep_conv_lst_m2d_1/while/split_2-folded-0", "shape": [1, 1, 32, 64], "dtype": "float32"}, {"name": "ConstantFolding/StatefulPartitionedCall/sequential/module_wrapper_1/sep_conv_lst_m2d_1/while/body/_67/sequential/module_wrapper_1/sep_conv_lst_m2d_1/while/split_1-folded-0", "shape": [3, 3, 64, 1], "dtype": "float32"}, {"name": "ConstantFolding/StatefulPartitionedCall/sequential/module_wrapper_1/sep_conv_lst_m2d_1/while/body/_67/sequential/module_wrapper_1/sep_conv_lst_m2d_1/while/split_3-folded-0", "shape": [1, 1, 64, 64], "dtype": "float32"}, {"name": "StatefulPartitionedCall/sequential/module_wrapper_1/sep_conv_lst_m2d_1/while/body/_67/sequential/module_wrapper_1/sep_conv_lst_m2d_1/while/Const", "shape": [], "dtype": "float32"}, {"name": "StatefulPartitionedCall/sequential/module_wrapper_1/sep_conv_lst_m2d_1/while/body/_67/sequential/module_wrapper_1/sep_conv_lst_m2d_1/while/Const_1", "shape": [], "dtype": "float32"}, {"name": "StatefulPartitionedCall/sequential/module_wrapper_1/sep_conv_lst_m2d_1/while/body/_67/sequential/module_wrapper_1/sep_conv_lst_m2d_1/while/clip_by_value/Minimum/y", "shape": [], "dtype": "float32"}, {"name": "StatefulPartitionedCall/sequential/module_wrapper_1/sep_conv_lst_m2d_1/while/body/_67/sequential/module_wrapper_1/sep_conv_lst_m2d_1/while/clip_by_value/y", "shape": [], "dtype": "float32"}, {"name": "StatefulPartitionedCall/sequential/module_wrapper_1/sep_conv_lst_m2d_1/while/body/_67/sequential/module_wrapper_1/sep_conv_lst_m2d_1/while/TensorArrayV2Read/TensorListGetItem/element_shape", "shape": [4], "dtype": "int32"}, {"name": "ConstantFolding/StatefulPartitionedCall/sequential/module_wrapper_1/sep_conv_lst_m2d_1/while/body/_67/sequential/module_wrapper_1/sep_conv_lst_m2d_1/while/split-folded-2", "shape": [3, 3, 32, 1], "dtype": "float32"}, {"name": "ConstantFolding/StatefulPartitionedCall/sequential/module_wrapper_1/sep_conv_lst_m2d_1/while/body/_67/sequential/module_wrapper_1/sep_conv_lst_m2d_1/while/split_2-folded-2", "shape": [1, 1, 32, 64], "dtype": "float32"}, {"name": "ConstantFolding/StatefulPartitionedCall/sequential/module_wrapper_1/sep_conv_lst_m2d_1/while/body/_67/sequential/module_wrapper_1/sep_conv_lst_m2d_1/while/split_1-folded-2", "shape": [3, 3, 64, 1], "dtype": "float32"}, {"name": "ConstantFolding/StatefulPartitionedCall/sequential/module_wrapper_1/sep_conv_lst_m2d_1/while/body/_67/sequential/module_wrapper_1/sep_conv_lst_m2d_1/while/split_3-folded-2", "shape": [1, 1, 64, 64], "dtype": "float32"}, {"name": "StatefulPartitionedCall/sequential/module_wrapper_1/sep_conv_lst_m2d_1/while/body/_67/sequential/module_wrapper_1/sep_conv_lst_m2d_1/while/add_8/y", "shape": [], "dtype": "int32"}, {"name": "StatefulPartitionedCall/sequential/module_wrapper_1/sep_conv_lst_m2d_1/while/body/_67/sequential/module_wrapper_1/sep_conv_lst_m2d_1/while/add_9/y", "shape": [], "dtype": "int32"}, {"name": "ConstantFolding/StatefulPartitionedCall/sequential/module_wrapper_1/sep_conv_lst_m2d_1/while/body/_67/sequential/module_wrapper_1/sep_conv_lst_m2d_1/while/split_4-folded-3", "shape": [64], "dtype": "float32"}, {"name": "ConstantFolding/StatefulPartitionedCall/sequential/module_wrapper_1/sep_conv_lst_m2d_1/while/body/_67/sequential/module_wrapper_1/sep_conv_lst_m2d_1/while/split_4-folded-1", "shape": [64], "dtype": "float32"}, {"name": "ConstantFolding/StatefulPartitionedCall/sequential/module_wrapper_1/sep_conv_lst_m2d_1/while/body/_67/sequential/module_wrapper_1/sep_conv_lst_m2d_1/while/split_4-folded-0", "shape": [64], "dtype": "float32"}, {"name": "ConstantFolding/StatefulPartitionedCall/sequential/module_wrapper_1/sep_conv_lst_m2d_1/while/body/_67/sequential/module_wrapper_1/sep_conv_lst_m2d_1/while/split_4-folded-2", "shape": [64], "dtype": "float32"}]}]}